Assets/BruteZombieBrain.onnx (onnx, 77017 bytes, 8 tensors)

network_body.observation_encoder.processors.0.normalizer.running_mean f4 [3]
-4.982463 -5.164189 22.628134
00000000: 5670 9fc0 0941 a5c0 6b06 b541

network_body._body_endoder.seq_layers.0.weight f4 [128, 3]
0.20597297 0.4951142 0.53811395 -0.41157165 -0.20501861 -0.041774582 -0.67196435 -0.62823004
0.3195937 0.57378703 -0.09719847 1.2142133 -0.17902525 -0.49530256 -0.117288314 -0.43240863
-0.4978818 0.84858584 -0.2619186 -0.33482242 -0.06819589 -0.70382464 0.04786285 -0.067903265
-0.12807623 0.30873442 0.7179081 -1.4020957 -0.033148285 -0.12782666 -0.6179283 0.7820705
0.5187621 -0.009448413 0.17454037 -0.12879613 0.47916788 0.45262375 0.63953716 -0.06133474
0.17545347 -0.40604866 -0.1476841 1.388241 -0.345931 -1.2281085 0.30438727 -0.020297926
-0.85538346 -0.08990484 -0.93033564 0.17049925 0.24492934 -0.5953801 -0.22143756 -0.5688538
0.35170996 -0.19484004 1.4568272 -1.3885984 0.024884026 -0.5853936 0.022197254 0.07857798
-0.22452128 -0.90759456 0.15650341 0.775354 0.3569171 0.23632799 0.26145098 -0.32894528
0.18868029 0.122128345 -0.51960963 -0.047439408 0.1286163 -0.19413859 -0.20713672 0.06813722
-0.067921996 -0.33714673 0.8582071 0.66003674 -0.8780926 0.039023567 0.12779187 -0.45016396
-0.09880751 0.3044506 -0.47434303 -0.72952694 0.48227078 -0.9129922 -0.30104804 0.31169343
0.39035812 -1.0517888 0.36429468 0.03831683 0.15683109 -0.15697631 -0.56815577 -1.1661212
0.12461255 0.24671434 -0.44109246 0.030778872 -0.15813205 -0.1826219 1.260236 0.89619166
0.65013945 -0.10228145 -0.23518567 1.1558107 0.34775144 -0.71587795 1.0494062 -0.27352655
-0.52779084 -0.049577627 0.14958741 0.34209767 -1.0498811 -1.0160146 -0.16263673 -0.799653
0.9416611 -0.73432225 -0.42869034 0.286054 0.47303075 -0.5613066 -0.27549943 -0.33335203
0.25695577 -0.022842774 0.39077103 0.3875391 0.0055657006 -1.4662902 -0.5444418 0.67348117
0.4276147 1.0595489 -0.6268879 0.1722939 -0.51664215 -0.2796918 1.1812005 -0.20169921
-0.08588876 0.22594921 0.42962965 -0.13079324 -0.21474096 0.2278374 1.5407174 -0.59909695
-0.106260955 -0.45030397 0.029407907 -0.6377612 -0.85650665 -0.3176991 -0.799665 -0.50424534
-0.43753022 -0.83584255 -1.2065874 0.4050888 -0.14309838 -0.17312439 -0.3893795 -1.043598
-0.049354423 0.32077298 0.8595197 1.2999828 0.15776306 0.027658286 0.75054586 -1.3681309
-0.5160255 -0.5330525 -0.46101937 -0.24058577 0.5494845 0.6442856 -0.034392163 0.20591402
0.95506936 -0.23994058 -0.89216954 -0.5467558 0.3264175 -0.09684277 0.62212265 -0.41843885
0.3060693 1.2301754 0.24671733 -0.8680534 -0.3708346 -0.053421203 -0.21923566 0.28088355
0.826064 -0.08113256 0.43053195 -0.34689054 0.1403444 -1.3277293 -0.26362833 -0.6224717
-0.08854591 0.83837134 -0.8938698 0.045233276 -0.30300963 0.49810585 0.7545537 -0.70256865
0.68143976 -0.39501137 0.5161164 0.1971724 0.776797 -0.7622929 -1.3950794 -0.70307547
-0.038590856 -0.8439207 0.11836927 -0.14900532 -0.9093789 -0.5167789 -0.20528084 -0.5152963
-0.23060675 0.3045414 -0.34982088 -0.24598515 0.756461 -0.6575528 0.33335325 0.31458524
0.34519705 1.2157193 -0.21363296 -0.06660318 -0.5136978 -0.42646536 -0.18814148 -0.21917996
00000000: 94ea 523e 9c7f fd3e d6c1 093f 85b9 d2be
00000010: 66f0 51be d31b 2bbd db05 2cbf afd3 20bf
00000020: c9a1 a33e b5e3 123f fe0f c7bd 576b 9b3f
00000030: 6552 37be 4c98 fdbe db34 f0bd aa64 ddbe
00000040: 5dea febe ec3c 593f 321a 86be d86d abbe
00000050: 49aa 8bbd da2d 34bf d60b 443d de10 8bbd
00000060: 6a26 03be 7012 9e3e d3c8 373f df77 b3bf
00000070: 7fc6 07bd fee4 02be 8d30 1ebf c635 483f
00000080: 98cd 043f 84cd 1abc b6ba 323e 22e3 03be
00000090: 7e55 f53e 4dbe e73e b5b8 233f 233a 7bbd
000000a0: 13aa 333e 9ce5 cfbe 803a 17be e2b1 b13f
000000b0: de1d b1be a932 9dbf a6d8 9b3e d647 a6bc
000000c0: 69fa 5abf 0720 b8bd 7a2a 6ebf 5b97 2e3e
000000d0: c2ce 7a3e d56a 18bf 87c0 62be 67a0 11bf
000000e0: 5413 b43e 2684 47be 5079 ba3f 98bd b1bf
000000f0: 96d9 cb3c 5bdc 15bf 04d7 b53c 7eed a03d
00000100: e8e8 65be 1e58 68bf 6e42 203e 9a7d 463f
00000110: d7bd b63e f7ff 713e e7dc 853e 846b a8be
00000120: 6835 413e 6d1e fa3d 2305 05bf d34f 42bd
00000130: feb3 033e 44cc 46be a61b 54be 878b 8b3d
00000140: b01a 8bbd 7f9e acbe 76b3 5b3f 2bf8 283f
00000150: adca 60bf 2dd7 1f3d dfdb 023e e47b e6be
00000160: 985b cabd f3e0 9b3e 17dd f2be 47c2 3abf
00000170: 32ec f63e dbb9 69bf f822 9abe 4896 9f3e
00000180: 05dd c73e 04a1 86bf d584 ba3e 1cf2 1c3d
00000190: 5498 203e 66be 20be a872 11bf 7643 95bf
000001a0: dd34 ff3d afa2 7c3e dfd6 e1be f923 fc3c
000001b0: 5eed 21be 3c01 3bbe 6a4f a13f d16c 653f
000001c0: 8a6f 263f f078 d1bd 83d4 70be 9bf1 933f
000001d0: 7a0c b23e c743 37bf f152 863f ac0b 8cbe
000001e0: 4d1d 07bf e911 4bbd 712d 193e 6d27 af3e
000001f0: 8162 86bf c40c 82bf 3e8a 26be 0fb6 4cbf
00000200: b410 713f 8bfc 3bbf 4d7d dbbe ab75 923e
00000210: 1631 f23e cab1 0fbf 430e 8dbe 1ead aabe
00000220: b58f 833e c520 bbbc 2413 c83e 866b c63e
00000230: 7b60 b63b 66af bbbf 8a60 0bbf 4369 2c3f
00000240: 50f0 da3e 4c9f 873f ba7b 20bf d06d 303e
00000250: a942 04bf c333 8fbe 9431 973f 3d8a 4ebe
00000260: 72e6 afbd 3b5f 673e 6bf8 db3e aaee 05be
00000270: 0ee5 5bbe 354e 693e 3a36 c53f 6b5e 19bf
00000280: 589f d9bd 3e8e e6be dae8 f03c 5144 23bf
00000290: 0544 5bbf 75a9 a2be d8b6 4cbf 3916 01bf
000002a0: f603 e0be c7f9 55bf 7571 9abf cd67 cf3e
000002b0: 6288 12be 8547 31be c05c c7be 9f94 85bf
000002c0: dd27 4abd 5b3c a43e 7c09 5c3f d665 a63f
000002d0: a48c 213e a193 e23c c623 403f ea1e afbf
000002e0: 3f1a 04bf 2176 08bf bb0a ecbe 1e5c 76be
000002f0: 04ab 0c3f e7ef 243f ccde 0cbd 20db 523e
00000300: 6d7f 743f fcb2 75be 3965 64bf 30f8 0bbf
00000310: 3220 a73e 8155 c6bd 6e43 1f3f 9e3d d6be
00000320: 1eb5 9c3e 6376 9d3f 78a3 7c3e bf38 5ebf
00000330: 08de bdbe 31d0 5abd 507f 60be f8cf 8f3e
00000340: ee78 533f d428 a6bd af6e dc3e a39b b1be
00000350: 71b6 0f3e 09f3 a9bf 4bfa 86be 4e5a 1fbf
00000360: 8f57 b5bd 819f 563f a7d4 64bf 8746 393d
00000370: 1424 9bbe bb07 ff3e 6e2a 413f 8adb 33bf
00000380: d672 2e3f ee3e cabe 3420 043f 90e7 493e
00000390: 2bdc 463f a125 43bf f691 b2bf c1fc 33bf
000003a0: 7211 1ebd 300b 58bf 966b f23d da94 18be
000003b0: 0ecd 68bf 9f4b 04bf 2435 52be 75ea 03bf
000003c0: 2d24 6cbe daec 9b3e b91b b3be 88e3 7bbe
000003d0: 6ea7 413f 6155 28bf 47ad aa3e 5111 a13e
000003e0: abbd b03e b19c 9b3f 99c2 5abe 3f67 88bd
000003f0: b381 03bf ab59 dabe 29a8 40be b670 60be

network_body._body_endoder.seq_layers.0.bias f4 [128]
-0.0023664294 -0.0006490409 -0.003675523 -0.0002891556 -0.007076722 -0.0013355654 0.0029423255 -0.0035705543
0.0067994976 -0.0017992137 0.009159535 0.0062240832 0.0125118 -0.00711116 0.011738018 -0.0016074422
-0.0034859704 -0.004016776 0.0034226377 -0.006792014 0.004435326 -0.008994667 0.00977106 -0.009305732
-0.0022372575 0.004902412 -0.007086088 0.0066996226 -0.0021709434 0.0015048321 -0.0044777985 0.00037646876
-0.0007938999 -0.013251127 0.0012311486 -0.0043718 0.004830572 0.010634343 0.0046300204 0.0027382628
0.0012575038 -0.0068753976 -0.009251419 -0.0025796376 -0.0069995103 -0.01072177 -0.011107398 -0.0007272328
-0.0015586884 -0.0061443206 0.002487466 0.010565138 0.0008165605 0.0016431623 -0.009343951 -0.0038847795
0.001288767 -0.006124744 -0.0028224709 0.0008167869 0.0021291086 0.0014032514 -0.006694739 0.008188086
-0.005682677 -0.004549675 0.0028407832 -0.015246361 -0.0053288783 0.014674563 -0.005290428 0.0010579079
0.0010478046 -0.005127819 -0.0049649915 -0.003545031 -0.002619872 -0.0038951451 -0.0063116006 0.0011703909
-0.00037385113 0.008963503 0.014546882 0.004007766 0.0030171627 0.0010638132 0.005472546 0.0010081633
-0.00984241 -0.0119539825 -0.0023238645 -0.009945962 -0.0033654338 0.005937338 -0.0061124405 -0.0010500151
-0.00051534764 -0.002509235 0.0013422428 0.004588946 -0.0015176857 0.010332882 -0.001698367 -0.009767631
0.0033986284 -0.012284267 -0.0058789724 -0.002029751 0.0131948795 -0.0023828044 -0.0026620426 4.536564e-05
-0.0115381 0.006340988 -0.0032897652 0.0020767376 0.0045458917 -0.0009550492 0.0019527298 0.0019477603
0.0018422621 0.0006550117 0.010344385 0.0060745245 -0.015099285 0.0032196424 -0.0064478726 -0.0064372546
00000000: 1916 1bbb 6624 2aba 0be1 70bb cf99 97b9
00000010: d9e3 e7bb 230e afba 08d4 403b f6ff 69bb
00000020: 52ce de3b 98d3 ebba e011 163c 65f3 cb3b
00000030: 4bfe 4c3c bc04 e9bb d150 403c cfb0 d2ba
00000040: e174 64bb 299f 83bb 554e 603b 8b8f debb
00000050: 3656 913b 5e5e 13bc cc16 203c 1277 18bc
00000060: f49e 12bb 6aa4 a03b 6a32 e8bb 8288 db3b
00000070: 6346 0ebb c93d c53a 7fba 92bb c860 c539
00000080: b81d 50ba 411b 59bc 7e5e a13a 5141 8fbb
00000090: c649 9e3b ab3b 2e3c 6db7 973b 6d74 333b
000000a0: d3d2 a43a 044b e1bb 4493 17bc 230f 29bb
000000b0: 265c e5bb 5daa 2fbc cefb 35bc c4a3 3eba
000000c0: e74c ccba 4c56 c9bb c104 233b 6719 2d3c
000000d0: 730e 563a 615f d73a 5f17 19bc c997 7ebb
000000e0: d8eb a83a 14b2 c8bb 34f9 38bb a41d 563a
000000f0: 8488 0b3b 4eed b73a 8b5f dbbb 5227 063c
00000100: c035 babb 7115 95bb 6f2c 3a3b dfcb 79bc
00000110: df9d aebb 946d 703c 545b adbb 80a9 8a3a
00000120: 7d56 893a 4307 a8bb 5eb1 a2bb c053 68bb
00000130: 29b2 2bbb b145 7fbb 8bd1 cebb cd67 993a
00000140: 7301 c4b9 a8db 123c 0c56 6e3c 9453 833b
00000150: 97bb 453b a66f 8b3a 0b53 b33b 5924 843a
00000160: 0f42 21bc a3da 43bc fa4b 18bb 63f4 22bc
00000170: 9c8e 5cbb 008e c23b de4a c8bb a9a0 89ba
00000180: 6518 07ba fa71 24bb 32ee af3a de5e 963b
00000190: 15ed c6ba 404b 293c bd9b deba 6a08 20bc
000001a0: 86bb 5e3b f343 49bc 65a4 c0bb 9205 05bb
000001b0: 562f 583c d328 1cbb aa75 2ebb fc46 3e38
000001c0: 4d0a 3dbc 10c8 cf3b 1a99 57bb e019 083b
000001d0: b4f5 943b 445c 7aba bdf2 ff3a fe4b ff3a
000001e0: 0f78 f13a 17b5 2b3a 7f7b 293c ce0c c73b
000001f0: fe62 77bc a300 533b ad48 d3bb 9bef d2bb

network_body._body_endoder.seq_layers.2.weight f4 [128, 128]
-0.027178572 0.050011374 -0.0458178 -0.02036123 -0.11366475 0.03659011 -0.075124055 -0.10500207
0.14640264 -0.12058301 -0.10604057 -0.032867067 -0.03104252 0.11505413 -0.05137513 -0.17328803
0.13717704 -0.03382275 -0.03505783 0.013815345 -0.070356354 0.1768629 -0.04141269 0.14800465
0.08476032 -0.036432926 -0.17362003 0.027234087 -0.022561591 -0.066964604 0.0071111456 -0.084685005
0.08594161 -0.015951695 -0.029715603 0.080135666 0.03977915 0.17025724 -0.12609266 0.10936126
0.00625144 0.04536837 -0.09719827 0.00090549747 -0.10567888 -0.07000721 -0.108231604 0.09354238
0.010377732 0.030905785 0.134714 -0.006469995 -0.020791443 0.0949402 -0.16594751 -0.0007397982
0.040594235 0.12330504 0.04280758 -0.0469079 -0.005501473 0.008000875 0.061174452 -0.054828353
0.11675964 -0.08624041 -0.08405682 -0.08955189 -0.00027239826 0.11717385 0.1136767 -0.011994294
-0.12524648 0.079053104 -0.0818878 -0.0057508554 0.060912702 -0.108908996 0.08241309 0.002194595
-0.043691177 -0.11085567 0.036371827 -0.06551139 0.021039734 -0.08697978 -0.08663258 0.04481214
-0.062293377 -0.20010105 -0.039115164 -0.091325946 0.02419507 -0.11953261 -0.08713076 -0.02104034
-0.015641723 0.084299356 0.016681908 -0.014605425 0.054488327 -0.13211775 -0.04882958 -0.021335006
-0.060286988 0.08643325 0.122054935 -0.072086394 -0.039823726 -0.021791205 0.07287823 -0.08585891
0.040012363 -0.094568685 -0.21741885 -0.12907667 -0.0016485073 -0.089956686 -0.011296467 0.048653275
-0.04585165 0.010507046 0.060492683 -0.032593627 -0.19079302 0.10600539 -0.13456853 -0.0596798
-0.12898521 -0.0694512 -0.04138402 -0.016713953 0.051752426 -0.07470033 -0.02781155 -0.017845152
0.008805027 0.0020282276 0.27059764 0.098857716 -0.05745592 0.03893252 0.13350168 0.07917633
0.09017635 0.096839376 0.07920843 -0.017702496 -0.098481305 0.015775299 -0.14950497 0.03551881
-0.03420918 -0.12425677 0.10116844 -0.10230828 0.0041383673 -0.068092294 -0.026656143 0.009257211
0.09158429 -0.01573416 0.13345587 0.017862456 0.094087295 0.0804582 -0.019446705 0.022480236
-0.0035937487 0.04335984 -0.091009036 0.024666145 -0.028141772 -0.09469814 0.05716137 0.046969075
-0.10909529 -0.034083385 -0.005054423 0.045594994 0.1297391 0.008294848 0.0073738797 0.12000481
-0.07779315 -0.11362559 -0.004711618 0.0130648445 -0.12130688 0.10567698 -0.02138572 0.0008079714
0.10573732 -0.11391878 0.060072977 -0.058461852 -0.0541283 -0.04575199 -0.040987793 0.018641295
-0.03581244 0.04992155 0.044724237 -0.014788364 0.04191747 -0.03417931 0.24062605 0.021544723
0.13089727 -0.10785099 0.15814261 0.07610065 -0.045717996 0.14719449 -0.21292154 -0.019946974
-0.067059234 0.06420229 0.07467043 0.07537768 -0.08406453 0.13206923 -0.058677822 -0.12641138
-0.024468418 0.07497438 -0.05523072 -0.011349126 -0.029246219 -0.062831156 0.09543824 0.2826729
0.09134269 0.059014726 -0.11462702 0.11095479 -0.08295268 -0.048536792 -0.12943107 0.05109524
0.0006140067 0.09063272 -0.11836116 -0.17887959 0.023716379 0.045917742 -0.05071896 -0.024440784
-0.06866734 -0.0045228205 0.16650291 0.06943839 0.106708914 -0.05518151 0.05350877 -0.08519727
00000000: 99a5 debc bad8 4c3d 72ab 3bbd 98cc a6bc
00000010: 10c9 e8bd 83df 153d a4da 99bd 530b d7bd
00000020: 93ea 153e 3af4 f6bd cc2b d9bd 9e9f 06bd
00000030: e24c febc 80a1 eb3d ba6e 52bd 6b72 31be
00000040: 2378 0c3e b989 0abd cd98 0fbd c259 623c
00000050: fe16 90bd 8c1b 353e 5aa0 29bd 888e 173e
00000060: d296 ad3d b13a 15bd 73c9 31be 051a df3c
00000070: 16d3 b8bc bd24 89bd 9d04 e93b 556f adbd
00000080: 2802 b03d 21ad 82bc 236e f3bc 2b1e a43d
00000090: 76ef 223d ea57 2e3e 6f1e 01be ccf8 df3d
000000a0: e1d8 cc3b 2fd4 393d e30f c7bd e85e 6d3a
000000b0: 2b6e d8bd f15f 8fbd 88a8 ddbd 2693 bf3d
000000c0: 5d07 2a3c 212e fd3c 78f2 093e 4002 d4bb
000000d0: d152 aabc 0270 c23d 25ee 29be 04ef 41ba
000000e0: 2446 263d 5a87 fc3d 0057 2f3d 8022 40bd
000000f0: b345 b4bb 1a16 033c 1092 7a3d b293 60bd
00000100: ae1f ef3d d09e b0bd fb25 acbd fb66 b7bd
00000110: add0 8eb9 d8f8 ef3d 54cf e83d b783 44bc
00000120: 9d40 00be 98e6 a13d cab4 a7bd ac71 bcbb
00000130: 997f 793d ae0b dfbd 32c8 a83d 32d3 0f3b
00000140: 85f5 32bd 4c08 e3bd a0fa 143d d62a 86bd
00000150: 855b ac3c 7422 b2bd 6c6c b1bd ef8c 373d
00000160: 5727 7fbd 4ae7 4cbe 3937 20bd 1909 bbbd
00000170: bd34 c63c 83cd f4bd 9d71 b2bd cb5c acbc
00000180: 1223 80bc 24a5 ac3d 7fa8 883c 984b 6fbc
00000190: 272f 5f3d e049 07be 8701 48bd c0c6 aebc
000001a0: 7def 76bd ea03 b13d f0f7 f93d 08a2 93bd
000001b0: 341e 23bd 7883 b2bc 2e41 953d ccd6 afbd
000001c0: 01e4 233d 3aad c1bd 0ca3 5ebe ad2c 04be
000001d0: ba12 d8ba 363b b8bd d114 39bc a848 473d
000001e0: f1ce 3bbd bf25 2c3c 2dc7 773d e580 05bd
000001f0: 3f5f 43be 5b19 d93d 55cc 09be ce72 74bd
00000200: b314 04be 6e3c 8ebd 4a82 29bd b3eb 88bc
00000210: 5afa 533d 7dfc 98bd 0cd5 e3bc ff2f 92bc
00000220: f642 103c 03ec 043b c68b 8a3e ea75 ca3d
00000230: e656 6bbd b577 1f3d aab4 083e 3327 a23d
00000240: 61ae b83d b953 c63d 0838 a23d d304 91bc
00000250: 91b0 c9bd 333b 813c d517 19be 2c7c 113d
00000260: ed1e 0cbd 557a febd 6631 cf3d 0187 d1bd
00000270: 249b 873b f973 8bbd fc5d dabc 8fab 173c
00000280: 8b90 bb3d ede4 80bc a8a8 083e 4954 923c
00000290: d7b0 c03d 45c7 a43d b24e 9fbc 7928 b83c
000002a0: 1985 6bbb 169a 313d f262 babd a810 ca3c
000002b0: 9389 e6bc 19f1 c1bd 0a22 6a3d a562 403d
000002c0: 5a6d dfbd 059b 0bbd 939f a5bb d1c1 3a3d
000002d0: 54da 043e 1de7 073c 96a0 f13b 15c5 f53d
000002e0: 0452 9fbd 89b4 e8bd eb63 9abb ee0d 563c
000002f0: be6f f8bd 2c6d d83d 1b31 afbc 0bce 533a
00000300: cf8c d83d 404e e9bd 150f 763d b275 6fbd
00000310: a3b5 5dbd 7066 3bbd d1e2 27bd a1b5 983c
00000320: 11b0 12bd 8a7a 4c3d c330 373d e54a 72bc
00000330: a7b1 2b3d 9bff 0bbd ad66 763e 8f7e b03c
00000340: ef09 063e fbe0 dcbd 23f0 213e a8da 9b3d
00000350: cb42 3bbd 27ba 163e 1b08 5abe d667 a3bc
00000360: 5a56 89bd 7d7c 833d cfec 983d 9d5f 9a3d
00000370: 062a acbd 283d 073e 2858 70bd fc71 01be
00000380: fe71 c8bc 2b8c 993d 9c39 62bd aff1 39bc
00000390: c495 efbc 9fad 80bd 2075 c33d 81ba 903e
000003a0: e011 bb3d 6db9 713d 92c1 eabd 443c e33d
000003b0: 18e3 a9bd 84ce 46bd 9489 04be 3e49 513d
000003c0: 4bf5 203a a69d b93d 5667 f2bd 362c 37be
000003d0: da48 c23c 3e14 3c3d afbe 4fbd 0a38 c8bc
000003e0: 76a1 8cbd 2b34 94bb bd7f 2a3e b735 8e3d
000003f0: 348a da3d 0206 62bd 032c 5b3d e87b aebd

network_body._body_endoder.seq_layers.2.bias f4 [128]
-0.01309525 0.0050044265 -0.008727689 -0.005710859 0.0010390779 -0.003989836 0.006798722 0.0073401304
-0.0016733559 0.0087278625 0.0018322346 -0.0030359435 0.0007621769 -0.0013431947 -0.0023711554 0.008669286
-0.0014773345 -0.0033405886 0.0017490517 -0.0009939958 -0.00057624927 -0.0069260597 -0.00341745 -0.004993846
-0.010583661 0.0036337704 0.0022674918 -0.0031903426 -0.0011139696 -0.0036124787 0.017880047 -0.0013090383
-0.008452394 0.0028563028 0.0015391696 0.008910311 -0.007137913 -0.0077461335 -0.0022863925 -0.0052879895
0.001293286 -0.012031598 -0.0057074907 0.00282563 -0.006984297 -0.0019406152 -0.0013242882 0.0022523806
0.0029935078 -0.009079298 0.0012532775 -0.008061103 -0.0019626895 -3.0069721e-05 0.010331984 0.0046456736
-0.001726408 -0.005780702 0.0067218714 -0.0014168083 -0.007955854 0.0019726343 -0.0026149575 -0.0094106
-0.0023969964 -0.0019760013 0.012134649 -0.0027887074 0.007206561 0.0054538874 -0.0039176694 0.0008865555
-0.005496932 0.0026971253 0.007904291 -0.0047471304 -0.009765087 0.0034600247 0.006451898 0.014700968
-0.0010485019 0.0026591953 0.006062596 0.0007849424 0.006939332 -0.00824724 -0.002687797 0.00961814
-0.010985864 -0.00239572 -0.001710319 -0.0065244427 -0.011610217 -0.0014241172 -0.010011421 0.0034137613
-0.004416839 -0.009605249 0.015322329 0.00055757386 -0.010223986 0.00977041 -0.007981317 -0.008360409
0.0013594782 -0.00096786185 -0.002235038 0.010938804 0.010044151 0.0052377456 0.0094161965 -0.0037022857
-0.0033653455 -0.0069103013 0.0018234628 0.009024305 -0.012294762 0.0051001166 0.0024937508 0.0073470906
0.006783037 -0.0034833164 0.0020453988 -0.0046029068 -0.0011458548 -0.00945265 -0.0024225714 0.0035245132
00000000: 768d 56bc 2cfc a33b 95fe 0ebc 2822 bbbb
00000010: ab31 883a 2cbd 82bb d0c7 de3b 7a85 f03b
00000020: 8254 dbba 4fff 0e3c 9727 f03a aef6 46bb
00000030: d3cc 473a 230e b0ba 6365 1bbb 9f09 0e3c
00000040: 1fa3 c1ba c7ed 5abb 7040 e53a f748 82ba
00000050: 6f0f 17ba 00f4 e2bb 4cf7 5fbb 6ba3 a3bb
00000060: 1767 2dbc 8d24 6e3b 339a 143b 1115 51bb
00000070: 9e02 92ba 56bf 6cbb 2d79 923c 0994 abba
00000080: e97b 0abc cf30 3b3b f6bd c93a 8efc 113c
00000090: 27e5 e9bb 47d3 fdbb 4dd7 15bb df46 adbb
000000a0: 7a83 a93a 2e20 45bc e705 bbbb 342e 393b
000000b0: 88dc e4bb 3e5c feba bd93 adba ad9c 133b
000000c0: ba2e 443b 56c1 14bc 0445 a43a b712 04bc
000000d0: 77a0 00bb 3c3e fcb7 7b47 293c bc3a 983b
000000e0: a448 e2ba 0b6c bdbb 2543 dc3b 33b4 b9ba
000000f0: 4559 02bc 5047 013b b55f 2bbb eb2e 1abc
00000100: ed16 1dbb cd7f 01bb 68d0 463c bfc2 36bb
00000110: 0425 ec3b 86b6 b23b cb5f 80bb bc67 683a
00000120: 9c1f b4bb 41c2 303b 0081 013c d18d 9bbb
00000130: befd 1fbc 95c1 623b 716a d33b 54dc 703c
00000140: e36d 89ba e545 2e3b bea8 c63b 98c4 4d3a
00000150: 5663 e33b 6f1f 07bc c025 30bb 6795 1d3c
00000160: 0efe 33bc 8301 1dbb c82c e0ba feca d5bb
00000170: c838 3ebc 72a9 baba f106 24bc 69b9 5f3b
00000180: 22bb 90bb 565f 1dbc 810a 7b3c 262a 123a
00000190: 8182 27bc 1214 203c 12c4 02bc 19fa 08bc
000001a0: 8530 b23a 1cb8 7dba b779 12bb ab38 333c
000001b0: 3990 243c 65a1 ab3b 6446 1a3c 0ca2 72bb
000001c0: 218d 5cbb cf6f e2bb 4201 ef3a aeda 133c
000001d0: f86f 49bc e11e a73b 326e 233b ddbf f03b
000001e0: 3d44 de3b 5a48 64bb 190c 063b fbd3 96bb
000001f0: 8230 96ba 4adf 1abc 01c4 1ebb 85fb 663b

action_model._discrete_distribution.branches.0.weight f4 [6, 128]
-0.0009638595 -0.0105232205 0.022932556 -0.018190378 0.01602268 0.0046461746 -0.024524255 6.3060026e-05
-0.003550832 0.008284129 -9.9107616e-05 0.0071460325 -0.0053205024 0.008603137 0.0021199111 0.0049253814
0.00037514273 -0.015359279 0.02838697 0.014595355 -0.0015431797 0.0003841718 0.01040902 -0.002977401
0.0023914096 -0.0058096354 -0.019338328 -0.004463182 -0.010018877 -0.009782678 -0.0060349978 0.0051624854
0.0035874757 -0.0019271814 -0.005394353 -0.0020623489 0.013592928 0.0046953307 -0.009270767 0.011786631
0.008320817 -0.00013315467 0.01582972 0.010398759 0.0056977593 0.009208477 -0.009044177 -0.01448801
0.013092079 -0.011523531 0.011129201 -0.005230374 -0.010584468 0.01705959 0.0005390199 0.0023503853
0.021042358 -0.0004942749 -0.010300725 0.020647274 -0.009153642 0.016507957 0.009394835 -0.0016417478
-0.01596906 -0.00988312 -0.0017769693 0.013518019 -0.009320158 -0.013007535 -0.009441266 -0.00560252
-0.00784572 0.01816264 -0.023579791 0.0029188264 0.005774236 -0.004728367 -0.0015742162 -0.01191585
-0.009626004 0.005421677 0.015436837 0.011223001 -0.0037027432 0.005821452 0.004583844 -0.013228947
0.0048934817 -0.012395059 0.003940338 0.007204838 0.013828812 -0.010810578 0.00625591 -0.016776862
0.016164213 -0.004095832 0.00551674 -0.0031702819 -0.014472928 0.015223155 -0.004305732 -0.003058393
-0.004836505 0.012354286 0.007444592 -0.00038107397 0.004363716 -0.008277833 0.001416957 0.007287452
-0.01977945 -0.007086903 -0.0039051531 0.0003637908 -0.0010382781 0.00471463 0.01198122 -0.006037722
-0.023784285 -0.00053466763 0.02477752 -0.005151822 0.0019130883 0.0025051069 0.004254962 0.0013134216
0.0059649274 -0.0090479255 0.00182651 -0.0009532385 0.0050345743 -0.0046094796 -0.032492734 0.005568018
-0.0036634845 -0.020935318 -0.016991105 0.019552264 0.015440351 0.0054536383 -0.0066687 -0.022858264
0.0062283287 -0.01692166 0.023928672 0.0028448154 -0.0011052804 0.009246444 0.020978926 0.0008793077
-0.00263022 -0.023380091 -0.017250499 0.004366057 -0.0038853006 -0.009252277 -0.023722474 0.02055315
-0.014056946 -0.0012000325 -0.011152636 -0.0041771373 0.017656267 0.0008653515 0.0013186485 0.011666245
0.0021215784 0.006438403 0.0074942643 0.0125089 -0.00729242 0.018036861 0.010857096 0.0053629796
0.002902997 -0.0055561266 -0.02028299 -0.0075643025 0.005312959 -0.005752921 0.0014065224 -0.0068809073
-0.0013241065 0.00653688 -0.009650087 0.013369763 -0.0019490119 0.00496529 0.009215012 0.0078816
0.014050407 0.0012519375 -0.0070564495 0.012056941 -0.014182473 -0.005081445 0.009893586 0.012731394
-0.0100434795 0.019176526 -0.0067041023 0.014438085 0.013848049 0.0105075305 -0.009279101 -0.0064517274
0.0048406655 -0.016917849 0.009604036 0.0037977465 -0.015739592 -0.0071399845 0.008409625 -0.0037422585
0.002300762 0.0001967893 -0.011378872 0.0036546881 0.017568497 0.020558337 0.013377813 -0.014009194
0.005854316 0.014496515 -0.013885616 -0.0046913857 0.0030351866 -0.004222782 -0.005213311 -0.0067641553
0.006845361 0.01867526 -0.016084101 0.010932965 -0.017685099 -0.008953574 0.0011254813 0.018692354
-0.0075045354 -0.0042728987 -0.012213912 -0.0044319006 0.006941048 -0.007784465 -0.012748 -0.0019002679
-0.008067865 -0.020217204 0.015791822 0.016875377 0.005646991 -0.0062269056 -0.0018958751 9.7541575e-05
00000000: 84ab 7cba 9669 2cbc 0edd bb3c fd03 95bc
00000010: ff41 833c f03e 983b 17e7 c8bc 183f 8438
00000020: 13b5 68bb 28ba 073c ffd7 cfb8 4429 ea3b
00000030: 9c57 aebb 2cf4 0c3c 35ee 0a3b 1865 a13b
00000040: ceae c439 7ca5 7bbc ca8b e83c 5b21 6f3c
00000050: 8544 caba ab6a c939 988a 2a3c 8020 43bb
00000060: 32b9 1c3b c15e bebb 6a6b 9ebc e23f 92bb
00000070: 3726 24bc 8747 20bc 3bc1 c5bb 112a a93b
00000080: db1b 6b3b 7a99 fcba 1dc3 b0bb 7928 07bb
00000090: dfb4 5e3c 4adb 993b 6ae4 17bc b71c 413c
000000a0: 0954 083c 6f9f 0bb9 54ad 813c 8e5f 2a3c
000000b0: 45b4 ba3b 27df 163c 072e 14bc 1e5f 6dbc
000000c0: 2980 563c 31cd 3cbc 4157 363c 8f63 abbb
000000d0: 7a6a 2dbc 8ec0 8b3c 034d 0d3a ec08 1a3b
000000e0: 0661 ac3c 3a92 01ba 5fc4 28bc 7924 a93c
000000f0: 28f9 15bc b23b 873c cbec 193c ea2f d7ba
00000100: 8cd1 82bc cfec 21bc 32e9 e8ba ae7a 5d3c
00000110: 93b3 18bc 8e1d 55bc 8aaf 1abc 5895 b7bb
00000120: 568b 00bc d1c9 943c 682a c1bc c849 3f3b
00000130: cd35 bd3b 6bf0 9abb ee55 ceba b33a 43bc
00000140: 63b6 1dbc 53a8 b13b caea 7c3c aee0 373c
00000150: b9a9 72bb e1c1 be3b 1234 963b 3abe 58bc
00000160: 8059 a03b a514 4bbc f31d 813b 9016 ec3b
00000170: 3e92 623c da1e 31bc 60fe cc3b a16f 89bc
00000180: d06a 843c 5436 86bb c5c5 b43b 81c4 4fbb
00000190: dc1f 6dbc 8a6a 793c 1917 8dbb 526f 48bb
000001a0: 8b7b 9ebb a269 4a3c c4f1 f33b e2ca c7b9
000001b0: 81fd 8e3b c09f 07bc 30b9 b93a 94cb ee3b
000001c0: 8308 a2bc 4039 e8bb 99ed 7fbb 2dbb be39
000001d0: d516 88ba 2f7d 9a3b e14c 443c 15d8 c5bb
000001e0: 43d7 c2bc f028 0cba 3afa ca3c 9ed0 a8bb
000001f0: 97c0 fa3a b82c 243b 356d 8b3b 1e27 ac3a
00000200: 7075 c33b c03d 14bc 8167 ef3a c1e2 79ba
00000210: 12f9 a43b 1e0b 97bb 1a17 05bd ec73 b63b
00000220: 1217 70bb 8b80 abbc ee30 8bbc 122c a03c
00000230: 87f9 7c3c 6fb4 b23b 1c85 dabb 4141 bbbc
00000240: 0217 cc3b 4b9f 8abc 1006 c43c 1570 3a3b
00000250: 0edf 90ba 667e 173c ffdb ab3c 5781 663a
00000260: c55f 2cbb 9b87 bfbc eb50 8dbc 2411 8f3b
00000270: 87a0 7ebb dd96 17bc a255 c2bc 145f a83c
00000280: 1b4f 66bc 694a 9dba 8cb9 36bc 5ee0 88bb
00000290: e0a3 903c c2d8 623a 80d6 ac3a c723 3f3c
000002a0: 2e0a 0b3b 3df9 d23b 7292 f53b 21f2 4c3c
000002b0: 41f5 eebb 0ac2 933c f6e1 313c efbb af3b
000002c0: 3540 3e3b 2b10 b6bb 8328 a6bc f8dd f7bb
000002d0: 5518 ae3b 0083 bcbb 0f5b b83a 3c79 e1bb
000002e0: a48d adba 5333 d63b 661b 1ebc da0c 5b3c
000002f0: fd75 ffba dfb3 a23b 90fa 163c d421 013c
00000300: ae33 663c 0d18 a43a ca39 e7bb 7a8a 453c
00000310: 9a5d 68bc 4082 a6bb b518 223c 5697 503c
00000320: 688d 24bc 1718 9d3c 16ae dbbb b88d 6c3c
00000330: ede2 623c c727 2c3c 5f07 18bc 0369 d3bb
00000340: 729e 9e3b 4d97 8abc 3f5a 1d3c 9de3 783b
00000350: 51f0 80bc 88f6 e9bb 86c8 093c ae40 75bb
00000360: 62c8 163b 3a59 4e39 736e 3abc 7e83 6f3b
00000370: cfeb 8f3c f569 a83c 9d2e 5b3c d286 65bc
00000380: 90d5 bf3b ca82 6d3c 7f80 63bc 32ba 99bb
00000390: fbe9 463b 435f 8abb 6cd4 aabb d9a5 ddbb
000003a0: 0d4f e03b dcfc 983c cec2 83bc 2e20 333c
000003b0: 57e0 90bc 03b2 12bc e384 933a b520 993c
000003c0: 9be8 f5bb ac03 8cbb dc1c 48bc 7a39 91bb
000003d0: bb71 e33b d314 ffbb fddc 50bc 6912 f9ba
000003e0: 142f 04bc 8d9e a5bc da5d 813c 3b3e 8a3c
000003f0: 650a b93b 120b ccbb 037f f8ba 3c8f cc38

action_model._discrete_distribution.branches.0.bias f4 [6]
-0.0039392137 -0.0051115802 0.003685396 0.0065865363 0.0012662626 -0.009087981
00000000: 8514 81bb 0b7f a7bb af86 713b dfd3 d73b
00000010: b9f8 a53a c1e5 14bc

onnx::Div_52 f4 [3]
19.89401 9.821699 5.6301346
00000000: ef26 9f41 ae25 1d41 102a b440
