Assets/PlayerBehaviour.onnx (onnx, 23739 bytes, 8 tensors)

network_body.observation_encoder.processors.0.normalizer.running_mean f4 [2]
000000 0b f4 d7 3f e2 a9 48 40
       1.6871351 3.1353688

network_body._body_endoder.seq_layers.0.weight f4 [64, 2]
000000 49 ec 75 bf 60 87 1b bf 4a 50 5b bf 0d 8c c5 be
       -0.9606367 -0.6075344 -0.85669386 -0.38583413
000010 9c b9 0e bf f6 47 91 3f 6f 89 f8 be a6 8a 8b bf
       -0.5575197 1.1350086 -0.48542354 -1.0901687
000020 9b 8a 46 3f d2 14 95 be 64 e1 d0 3d 58 cd 06 bf
       0.77555245 -0.29117447 0.1019924 -0.5265708
000030 81 7b 18 3f 77 8c 41 3f f6 7e c8 be 73 5e 87 be
       0.5956345 0.7560496 -0.39159364 -0.26439247
000040 86 1c 54 3f f0 a5 72 3e 32 a4 37 3e 44 0a c7 3d
       0.82856023 0.23696113 0.1793373 0.09718755
000050 70 c4 30 bf 45 fd 1d bd f8 a6 05 bf 63 5a 09 3e
       -0.6904974 -0.038571615 -0.522079 0.13413386
000060 0e db 3b 3f af f0 2b 3e a0 55 1a be d2 a6 86 bf
       0.73381126 0.16791032 -0.15071726 -1.051966
000070 ca b3 84 3d f2 12 91 3e 39 b1 98 be b6 1e b3 bf
       0.064796045 0.28334767 -0.2982271 -1.3993747
000080 d1 5a 04 3f 73 1b 03 bf 3f bf a0 bf e2 b4 60 bc
       0.51701075 -0.5121376 -1.2558364 -0.013715001
000090 86 75 4d bf af 6a 7a bf c2 56 73 3f d1 93 a1 3e
       -0.8025745 -0.97819036 0.95054257 0.31558087
0000a0 b4 c6 2d 3e 7f bc a7 3e 88 fd 47 be 0c 6e fb 3e
       0.1697033 0.32761 -0.19530308 0.49107397
0000b0 4e 1a 55 be 47 f6 e9 be d3 f2 95 be 95 ef 8b 3f
       -0.20810816 -0.45695707 -0.29286823 1.093249
0000c0 b3 0e 82 bf 8b f1 4a bf 67 21 94 3f ca db 4c 3f
       -1.0160736 -0.79274815 1.1572694 0.8002287
0000d0 95 a3 86 3e 02 81 e2 bd 2f ca 75 3f 80 d9 01 3f
       0.26296678 -0.110597625 0.9601163 0.50722504
0000e0 4a 81 58 bf 12 95 7e bf 25 a2 9d bd 7b 8a 47 3d
       -0.8457228 -0.99446213 -0.07696942 0.04871605
0000f0 50 a8 f2 3e 35 f5 b7 be a8 ee 67 3f 8e 03 b7 bf
       0.47394037 -0.35929266 0.90598536 -1.429796
000100 b1 a5 ec be 49 96 81 3d a3 0d 44 bf 65 3c 93 be
       -0.46220163 0.06327493 -0.7658331 -0.28757015
000110 7d 46 88 3e f1 5e 80 3f 13 7a 44 bf 8a 89 a1 3f
       0.26616278 1.0028974 -0.7674877 1.2620099
000120 53 cb 20 be 1b 8f b1 bd f2 16 2c 3f e1 8f 82 bf
       -0.15702562 -0.08669873 0.6722251 -1.0200158
000130 c0 35 09 3e 85 87 17 3d 63 3e 08 3f 48 70 9d 3e
       0.1339941 0.036994476 0.53220195 0.30749726
000140 13 64 71 3e 1e f0 6d bf 75 59 be be bc d2 e7 be
       0.23573332 -0.92944515 -0.37177625 -0.45277965
000150 d5 71 74 be 64 60 30 be 43 50 8a bf e2 f3 09 bf
       -0.23871548 -0.1722427 -1.0805744 -0.5388776
000160 bb 70 bb be de 7a c8 3d f0 e5 89 bf e2 30 57 be
       -0.36609444 0.0978906 -1.0773296 -0.21014741
000170 eb 5d 38 bf bf 50 e0 be 4e a1 85 3e 70 ce d6 bd
       -0.7201831 -0.43811604 0.26099628 -0.104885936
000180 57 c4 e2 3d e8 14 a2 bf f9 f8 1e bf 08 20 a2 3e
       0.11072605 -1.266263 -0.6209865 0.31665063
000190 4f b1 72 3f ae ab 8f bf a8 4b b9 be 6e 08 b1 3e
       0.948018 -1.1224267 -0.36190534 0.34576744
0001a0 dc de 48 3f 52 d8 88 3f 27 d5 48 3f b6 41 0f 3f
       0.78465056 1.0691016 0.78450245 0.5595964
0001b0 4b dc 51 3f c8 3b 02 bf 8f b0 d7 be 58 3e 6f 3d
       0.81976765 -0.5087247 -0.4212689 0.058409065
0001c0 d6 b0 9b 3e 98 bf 56 bf d4 2e 62 be 1c 58 dc 3d
       0.30408353 -0.838861 -0.22088176 0.10758993
0001d0 2c a9 75 3e 32 fa fe be 02 bf b2 3e 59 27 16 be
       0.23990315 -0.4980026 0.34911352 -0.14663447
0001e0 d8 90 e5 bd 16 dc 86 3f 13 42 97 3f 13 6d 80 3f
       -0.112092674 1.0535915 1.1817039 1.0033287
0001f0 e6 59 01 3f df fa 4a 3f fc c9 25 bd 6e dc d0 bf
       0.505278 0.7928905 -0.04047583 -1.631727

network_body._body_endoder.seq_layers.0.bias f4 [64]
000000 7d 04 90 bb 9d 47 3a 3b fb 1d 89 bb f2 f1 00 3d
       -0.0043950663 0.0028424032 -0.004184482 0.031480737
000010 a5 ac a7 3d b9 7d 73 bd 36 98 92 3d 64 67 de 3c
       0.08187226 -0.05944607 0.07157938 0.02714891
000020 75 73 ac 3d 36 7e aa 3d e1 f7 24 bd 29 5c 2a bd
       0.08420459 0.08324854 -0.04027546 -0.041591797
000030 e8 e1 a7 3d bf 1c 6b bd 8a 08 a6 3d 27 9a 27 3d
       0.08197385 -0.05740046 0.081070974 0.040918496
000040 1f 2a e1 3c 2d c5 a4 3c 08 c4 37 3d 64 83 a8 3d
       0.027485905 0.020113552 0.044864684 0.08228186
000050 b3 6e ba 3c d6 d4 7f 3c ac 28 ae bd 3b 28 ab 3c
       0.022757864 0.015614709 -0.08503851 0.020893207
000060 f2 34 05 3d eb 74 93 3d 3c 81 91 bd 6e b1 a0 3d
       0.032521196 0.07200035 -0.071047276 0.07846342
000070 fb 52 a7 3c 53 df 8c bd 6d 24 d6 3c 54 44 58 3d
       0.02042531 -0.06878533 0.026140416 0.052799538
000080 b7 d0 42 bd 20 1c 42 bd 12 c2 85 3d d5 8a 0a 3d
       -0.047562327 -0.047390103 0.065311566 0.033823807
000090 73 c1 b0 bd 92 b5 82 bd 0e c8 8c 3d 77 3c 41 3d
       -0.086306475 -0.06382288 0.06874095 0.047176804
0000a0 f2 4d 47 3d 6d b4 62 bd 1a 88 8b bd 75 58 3d bc
       0.04865832 -0.05534785 -0.06813069 -0.011556734
0000b0 bd 2d 87 3d 40 42 92 3c 34 de 47 bd 68 51 81 3d
       0.06600521 0.017853856 -0.048795894 0.06314355
0000c0 67 c5 df 3c 6b 3b 01 bd 1d 6b a3 3d 75 7e 82 bd
       0.027315808 -0.031550806 0.079794146 -0.06371776
0000d0 b5 63 20 3d d8 ae 98 3d 8f 08 b2 3d 81 42 33 bd
       0.039157588 0.07455224 0.08693039 -0.043764595
0000e0 16 a3 d7 bd 70 c6 5c bd 8c bb 9d 3d 76 fd 9e 3d
       -0.10529153 -0.053900182 0.07701787 0.077631876
0000f0 83 aa 82 3c d7 05 7a 3d 33 52 84 3d 91 88 40 3d
       0.015950447 0.061040726 0.06460991 0.04700524

network_body._body_endoder.seq_layers.2.weight f4 [64, 64]
000000 8f bb 8c 3e 9a 08 5a 3e dd 00 03 be 96 0b 58 bd
       0.27486846 0.21292344 -0.12793298 -0.052745424
000010 df 81 47 bc 60 d3 c9 3c 42 cc 39 3e 04 6e 31 bd
       -0.01217696 0.024636924 0.18144324 -0.04331781
000020 a4 c5 4a 3e e5 8c 06 3e 87 1c 2a bd 98 40 5a be
       0.19801956 0.13139684 -0.041531112 -0.21313703
000030 18 6d 28 bc 34 b4 0e 3e 52 b4 80 3e 4d 30 9d bd
       -0.010279916 0.1393593 0.25137573 -0.07675228
000040 d2 47 b9 bc f7 c4 16 bd 51 9b 07 3e 98 db 39 be
       -0.022617254 -0.036808934 0.13242842 -0.18150175
000050 f3 cb 44 3d 24 71 e8 3c 1c 59 31 3b c1 ad a3 be
       0.048046064 0.028374262 0.002706117 -0.319685
000060 ac 8f 1a 3e ab bb 90 bd c0 b4 a1 bc c9 8d 06 3e
       0.15093869 -0.07067045 -0.019739509 0.13140024
000070 ef 8f 5b be 20 74 8e bd 69 f2 e6 bd 0b ce 7b 3e
       -0.21441625 -0.06955743 -0.11276705 0.24590318
000080 55 c5 3c bd a7 7d 6b bd 13 5f a1 bd 23 0f f9 3d
       -0.046086628 -0.05749288 -0.07879462 0.1216109
000090 88 11 21 be cf cc 75 3d 59 d2 28 3e 89 a6 2b 3e
       -0.15729344 0.060009774 0.16486491 0.16762747
0000a0 5a 51 7b 3d 96 0b db bd 1d fd 0b 3b 61 66 60 3e
       0.06135688 -0.10695569 0.0021360584 0.21914054
0000b0 35 ac b3 bd c9 a4 3e bd 09 fa 1b be 30 20 87 3e
       -0.0877308 -0.04654387 -0.152321 0.26391745
0000c0 83 93 0a be be 9f 06 3e a2 ee ca 3d fb 74 73 3e
       -0.13532834 0.13146874 0.09908797 0.23775093
0000d0 2c be 47 3e b6 12 39 3d 3b 33 85 3d eb cf 89 3d
       0.19506139 0.04518386 0.06503912 0.0672911
0000e0 3a cb ff bd a5 39 0d be 28 8a 2d 3d 11 eb 09 bd
       -0.12489934 -0.13791521 0.042368084 -0.033671442
0000f0 dc 4e 6d bd 4c ce 21 3e 6c 44 90 3d d2 a7 9e 3d
       -0.057936534 0.15801352 0.070443004 0.07746853
000100 58 a5 d7 3c c3 43 42 3e e5 79 aa bb 2b b4 07 bd
       0.02632396 0.18971162 -0.0052025192 -0.033130806
000110 64 a8 53 bc 78 a3 49 be 6b b0 8a 3d d5 08 b0 3b
       -0.012918565 -0.19691265 0.0677193 0.0053721466
000120 65 da 93 3d f2 b3 ee bb ac 4f 0e be 89 b0 0a be
       0.0721939 -0.0072846347 -0.1389758 -0.13543905
000130 74 9f 44 3e f1 0c 18 3e 74 f9 09 bd 42 4c a6 3b
       0.19201452 0.14848687 -0.033685163 0.0050750086
000140 48 dc 39 be 9b 30 07 3e 99 04 bd bc 60 c8 97 3e
       -0.18150437 0.13202135 -0.023073481 0.29645061
000150 89 c3 1d 3d a9 64 15 3e a8 10 cd bc bb 4a 84 3e
       0.038516555 0.1458918 -0.025032356 0.25838265
000160 1d 91 c1 3d 1a bf e2 ba d6 ff 96 3d 15 27 89 3d
       0.09451506 -0.0017299384 0.073730156 0.066969074
000170 cc 38 b6 3d 1e 5f 83 bd 30 b2 5c 3e 17 92 d2 bd
       0.08897552 -0.064146265 0.21552348 -0.10281771
000180 89 f6 2b be 8b f2 3a bd 58 2d 0b 3e 92 13 39 be
       -0.16793264 -0.045641463 0.13591516 -0.18073872
000190 c9 18 b3 bc c8 39 2e 3c d1 7c 44 3e 55 f0 54 bd
       -0.021862404 0.010633893 0.19188239 -0.05198701
0001a0 2d bd 7d 3d 38 f3 2a be 11 e8 bd bd 6b b0 e2 3d
       0.06194799 -0.16694343 -0.09272779 0.11068805
0001b0 f3 36 91 bd a0 2c 39 be 99 a1 2f bc 47 89 54 3b
       -0.07090559 -0.1808343 -0.01071968 0.0032430456
0001c0 c7 81 ac 3d 86 91 08 be 5d 00 8c 3d d6 55 ea bc
       0.084231906 -0.13336763 0.06836007 -0.028605383
0001d0 cc 30 9f 3d e9 21 f6 3b 15 81 2d 3d 5d 14 19 3e
       0.07772979 0.0075113666 0.04235943 0.14949174
0001e0 2b 59 08 3e 64 41 40 3e 07 10 46 be 8b 52 04 bd
       0.13315265 0.18774945 -0.19342051 -0.03230528
0001f0 2a 42 17 bb 58 e3 94 3c 76 7e 10 bd 91 55 08 be
       -0.0023080208 0.018174812 -0.035276853 -0.13313891
000200 10 ea 15 be eb ae 01 3e b3 e5 52 bd e1 12 a6 bd
       -0.14640069 0.12664382 -0.05148859 -0.081090696
000210 2c ff 09 bd 93 44 bc be 9e 75 d9 3c 02 a7 a5 3c
       -0.033690616 -0.36771068 0.026545342 0.020221237
000220 03 21 01 bd b2 b9 96 be 51 b9 85 be 04 42 f3 ba
       -0.031525623 -0.2943855 -0.26117948 -0.0018559103
000230 5b 42 f0 3c 6f 99 b8 3d 05 cf b2 bd 9f 91 56 bd
       0.029328516 0.0901364 -0.08730892 -0.05238497
000240 c8 05 bb bd 3b 9d 13 3d 48 3f ea bd 7e 2f 2d bd
       -0.09131962 0.03603862 -0.11437851 -0.04228162
000250 7d 3e f3 bd 94 91 98 bb c6 88 21 bd c4 f9 e7 bd
       -0.11877153 -0.004656026 -0.039437078 -0.11326936
000260 7e 70 d2 bd 37 cb 49 3c 2d 2a ee bd d6 df 33 bb
       -0.102753624 0.012316517 -0.11629138 -0.002744665
000270 12 1b 0f bd d3 03 3b 3d 89 80 a0 3e 04 34 83 bd
       -0.034937926 0.045657944 0.31348065 -0.064064056
000280 31 59 2f be bc 26 55 3e 1c 1a 07 3c 95 02 67 bd
       -0.17123868 0.20815557 0.008245971 -0.056398947
000290 18 c7 9c 3b f3 39 58 3d f7 5d fb bd 70 ca 70 3d
       0.004784476 0.05278964 -0.12273782 0.05878681
0002a0 11 f7 5d be c8 f4 02 3e 89 da 09 3e 1a 5a 32 ba
       -0.2167628 0.12788689 0.13462271 -0.00068035873
0002b0 f2 b5 7c 3d 83 25 71 be 2e 60 4f 3d 6e 41 50 3e
       0.061696954 -0.23549466 0.050628833 0.2033746
0002c0 cf 75 1e be 32 05 06 be da 4b 5f 3c c3 1f 3e 3d
       -0.15474628 -0.1308792 0.013628924 0.04641701
0002d0 f6 d6 12 bd af 9f 9b bd 25 ff 27 3c c6 ed a2 be
       -0.035849534 -0.075988166 0.010253702 -0.31822032
0002e0 db bb 1d 3d 76 d7 c3 3d a4 58 a9 bd a4 4c 41 3e
       0.03850923 0.0956258 -0.0826886 0.18876892
0002f0 e4 18 69 3d f7 6c 55 bd f4 6d a6 bd 38 91 a9 bd
       0.056908503 -0.05210587 -0.08126441 -0.082796514
000300 b0 5b db 3d 6b 8e ad bd 68 ab bd bd 21 6b fe bd
       0.107108474 -0.0847443 -0.09261209 -0.12422777
000310 5a 21 73 be 17 d7 35 3c a3 16 42 3d e5 bb 8b bc
       -0.23743191 0.011098645 0.04738487 -0.017057369
000320 21 e3 1b bd 20 79 62 be 9f fe 34 3c c7 b9 dc bd
       -0.038058404 -0.22116518 0.0110470345 -0.10777622
000330 e6 bb b0 3d 6e 08 72 3e cb 2e 14 3d 96 20 82 3c
       0.08629589 0.23636028 0.036177438 0.015884679
000340 d2 91 18 be 3f 9b 40 be 05 70 b1 bd 1f bf 89 3c
       -0.14899376 -0.18809222 -0.08663944 0.016814766
000350 8d e6 a0 bd 76 21 9f 3e fc 28 13 3c fd e7 8c 3d
       -0.07856474 0.31080216 0.008981939 0.06880186
000360 58 09 e4 3b 4c 12 d1 3d aa 65 06 3d 5c 00 04 bd
       0.0069591217 0.10208568 0.0328118 -0.032226905
000370 86 f0 ab bd a6 cd 78 3c 76 ed 93 be 90 c2 bb bd
       -0.083954856 0.015185749 -0.28892106 -0.09167969
000380 d6 bb 19 bd a7 44 5c 3d 58 ae 63 3c 49 88 d8 3d
       -0.03753265 0.05377641 0.013896547 0.10572869
000390 7c df 17 3e 24 94 c9 3c 01 c8 85 bd 82 c2 a5 bc
       0.14831346 0.024606772 -0.06532288 -0.02023435
0003a0 02 f2 8f bd d4 2b 3b 3d 0f d0 69 3d bc 7b 02 3e
       -0.07028581 0.045696095 0.057083186 0.12742513
0003b0 66 69 41 be c2 bb 7e 3d fa a6 e9 bd 1f 4e e2 bd
       -0.18887863 0.06219078 -0.114088014 -0.11050057
0003c0 67 5e 56 3c 10 61 42 be 9d 72 2b bd f4 8a 33 be
       0.013084031 -0.18982339 -0.04185735 -0.17533475
0003d0 9f 9b 4b bc af 75 0e be f8 a7 0a be 5c f6 d2 bc
       -0.01242724 -0.1391208 -0.13540637 -0.025752239
0003e0 97 5e ac 3c ee 61 dd 3c 5e fa 24 3e 3d 47 e5 bd
       0.021041198 0.027024236 0.16111133 -0.11195228
0003f0 73 8f 24 bd da a6 27 be fd d2 8c bd c9 80 4e 3d
       -0.040175866 -0.16372243 -0.0687618 0.050415788

network_body._body_endoder.seq_layers.2.bias f4 [64]
000000 8d d6 a9 3d 0a c4 a5 3d 64 f5 a1 bd 41 80 39 bd
       0.082928754 0.08094032 -0.07908133 -0.045288328
000010 42 9d b4 3d 0b 0c 5b bd d5 cf 5f 3d fd cb ab 3d
       0.08819057 -0.053478282 0.054641563 0.08388517
000020 f7 d3 92 3d ff c2 87 bd 40 f7 50 bd 0b 6f 98 3d
       0.07169335 -0.066289894 -0.051017046 0.07443055
000030 38 d7 3c 3d c2 a9 92 3d a1 32 9d 3d a3 80 94 3d
       0.046103686 0.07161285 0.07675672 0.07251098
000040 b4 d5 93 bd ab 07 99 bd f6 5b 95 3d 8a 02 58 3d
       -0.07218495 -0.07472166 0.07292931 0.052736796
000050 55 b8 90 3d 97 96 8b 3d d3 00 99 bd c3 c2 61 bd
       0.070664085 0.06815832 -0.0747086 -0.05511738
000060 25 bc a3 3d b4 44 99 3d ab d4 12 3c 55 04 bd 3d
       0.0799487 0.07483807 0.008961837 0.09229342
000070 0f 2d 8b bc 47 e4 70 bd cd 09 ac 3d b4 ca 8a bd
       -0.016989259 -0.058811452 0.08400307 -0.06776944
000080 d2 0a 6c bd fb e9 e8 3c cd 42 6b bd f5 49 93 3d
       -0.057627507 0.028431883 -0.057436753 0.071918406
000090 ef c2 8b 3d e0 6d fa 3c 62 91 8e 3d a2 10 85 3d
       0.0682429 0.03056997 0.06961323 0.06497313
0000a0 cc 28 6f 3d fd 05 a5 3d 02 93 90 3d e6 eb 8b 3d
       0.058388516 0.08057783 0.070592895 0.068321034
0000b0 d0 d4 8f bd 94 f5 b1 3d b5 ee 91 bd 73 a9 15 3c
       -0.07023013 0.086894184 -0.07125608 0.009134638
0000c0 4f 64 98 3d 3a 16 53 bd 94 c8 95 3d 1d ee a6 3d
       0.07441007 -0.05153487 0.07313648 0.08150885
0000d0 32 2d a3 3d f9 ff a4 3c 34 83 39 bd 8c cb e8 3c
       0.07967605 0.020141589 -0.04529114 0.028417371
0000e0 9e 08 90 bd d3 09 95 bd d0 e9 ab 3d 0f 18 df bc
       -0.070328936 -0.072772644 0.083942056 -0.027233152
0000f0 54 20 a1 bd 40 3c 57 3c c0 6d a4 3d 82 75 62 3d
       -0.07867494 0.013136923 0.08028746 0.055287845

action_model._discrete_distribution.branches.0.weight f4 [2, 64]
000000 38 e3 38 bd 24 a4 18 bd fe 46 7c 3d 10 a2 7f 3c
       -0.045138568 -0.03726591 0.06159114 0.015602604
000010 7f 77 4a bd fb c7 c3 3c 3c 7e db bc 09 86 e6 bc
       -0.049430367 0.023899069 -0.026793592 -0.028140085
000020 00 81 99 bc a5 de 3d 3d 75 27 bb 3a 20 0a 0e bd
       -0.01873827 0.04635491 0.0014278727 -0.034677625
000030 06 1a 54 3b 8b 21 88 bd c5 f1 f0 bc 0b 15 f9 bc
       0.0032364144 -0.06647023 -0.02941216 -0.030405542
000040 1d e2 41 3d 3e 89 8b 3d e8 52 8d bc fb ad cc bc
       0.04733478 0.06813286 -0.017251447 -0.024985304
000050 42 13 10 bd 7d 02 66 bd 38 ee c6 3d 6c 45 b5 3c
       -0.035174616 -0.056154717 0.09713405 0.02212783
000060 d8 3d 45 bd e1 6c 0d bd 57 69 00 bd d6 34 98 bd
       -0.048154682 -0.034527663 -0.03135046 -0.07431953
000070 eb 77 9d bc 93 4a 1e 3d b0 ed 8c bd 18 30 a8 3d
       -0.01922222 0.03864534 -0.06881273 0.08212298
000080 99 6b 25 3d 75 c7 5e bc fc 71 c6 3b dd be 60 bb
       0.040385816 -0.013597359 0.0060560685 -0.003429345
000090 77 fc 08 bd a5 72 22 bd d8 78 d5 bc a3 96 db bc
       -0.033443894 -0.039660115 -0.0260586 -0.026805228
0000a0 8a 49 ef 3b a6 34 f3 bc 03 ca c4 bc 0f b4 8c bc
       0.0073024677 -0.02968819 -0.024022108 -0.017175702
0000b0 e9 10 51 3d 21 d9 9a bd b0 dc 7d 3c 8e f0 53 bc
       0.051041517 -0.07560945 0.0154945105 -0.012935771
0000c0 60 a5 39 bd 4a f0 80 bb d8 30 4b bd 96 6b 6f bd
       -0.04532373 -0.0039348947 -0.049607128 -0.05845221
0000d0 20 46 59 bd f3 44 5f bb a3 cf fa 3c 04 9a 18 bd
       -0.053045392 -0.0034068197 0.030616587 -0.037256256
0000e0 ae 47 39 3d 95 44 79 3d 13 00 11 bd c3 bd 5d 3d
       0.045234375 0.06085642 -0.03540046 0.05413605
0000f0 19 7c 9d 3d 4e bf 00 bd 1b a9 2b bd 08 6b 59 bc
       0.076896854 -0.031432442 -0.04190932 -0.013270147
000100 42 43 ab 3c 9c 25 16 3d 42 20 a7 bd 95 0b 7a 3b
       0.020906094 0.03665696 -0.081604496 0.0038153876
000110 33 37 83 3d 6c 46 63 bc 3a a2 31 3c 41 c2 18 3d
       0.06407013 -0.01387177 0.0108419005 0.03729463
000120 bd 75 03 3d f0 35 2c bd b9 ac 91 bb 1f 93 61 3d
       0.032094706 -0.042043626 -0.004445639 0.055071946
000130 ab 5b a1 3c 26 96 f2 3c 2c 12 0e 3d 26 a7 c2 3c
       0.019697031 0.029612612 0.0346853 0.023761343
000140 70 e5 45 bd c3 1e a1 bd a1 13 5d 3d 8e d3 05 3d
       -0.04831451 -0.078671955 0.053973798 0.032672457
000150 c4 ce 49 3c 87 69 e1 3c 94 8d ac bd fe d7 aa bc
       0.012317363 0.02751614 -0.084254414 -0.020854946
000160 30 88 81 3d 22 03 1b bc c9 eb 74 3c 48 f2 6d 3d
       0.06324804 -0.009461196 0.014948794 0.058092386
000170 2a d1 50 3c 8d ab 8d bc af f1 49 3d ce 14 b3 bd
       0.012745181 -0.017293716 0.049302753 -0.087442026
000180 b0 ec 4e bd 0e 6f 4a 3d 29 5f 3c bd bb 3a 0e bc
       -0.05051869 0.049422316 -0.04598919 -0.008680995
000190 70 94 28 3c 19 d6 8d 3b 95 53 4c 3d 61 94 04 3d
       0.0102892965 0.004328501 0.049884398 0.032368068
0001a0 66 f7 b2 39 a4 9c a5 3c 7b fa 0a bc 86 18 cb 3c
       0.00034135132 0.020216294 -0.008482571 0.024791967
0001b0 70 8f 91 bd 52 a0 87 3d 05 3e dd bc 1a d2 05 3d
       -0.07107437 0.066223755 -0.027007112 0.03267107
0001c0 4d 9a 47 3d ec d5 95 bb 27 dd 10 3d fd 2b 84 3d
       0.048731137 -0.0045726206 0.035367157 0.064537026
0001d0 93 8f ff 3c db e6 8a 3c 81 61 fa bc f2 36 77 3c
       0.031196391 0.016955784 -0.030564072 0.015088784
0001e0 41 bf 1b bd 29 b8 ea bc 5f 08 6f 3d aa 1f 41 bd
       -0.03802419 -0.028652268 0.058357593 -0.047149338
0001f0 5d 4c 8e bd 44 50 ea 3c a8 58 bf 3c 04 26 ab 3b
       -0.06948159 0.028602727 0.023357704 0.0052230377

action_model._discrete_distribution.branches.0.bias f4 [2]
000000 e4 21 94 bd e4 21 94 3d
       -0.072330266 0.072330266

onnx::Div_52 f4 [2]
000000 08 8c 4f 40 d7 21 8f 40
       3.2429218 4.472881
