Assets/ZombieBrain.onnx (onnx, 76501 bytes, 8 tensors)

network_body.observation_encoder.processors.0.normalizer.running_mean f4 [3]
0	0x3f1bef37	0.6091189
1	0x3fded4c4	1.7408681
2	0x4121b439	10.1065

network_body._body_endoder.seq_layers.0.weight f4 [128, 3]
0	0x3e144feb	0.14483611
1	0xbe3b1bb6	-0.1827229
2	0x3ea46e26	0.32115287
3	0xbd8007d2	-0.062514916
4	0xbf0a5663	-0.54038066
5	0x3f201890	0.6253748
6	0xbb991582	-0.0046717534
7	0xbec36e0c	-0.38169897
8	0xbf1029f7	-0.56314033
9	0xbf40ce32	-0.7531463
10	0x3f8d9b25	1.1062971
11	0x3e9bd1d5	0.30433527
12	0xbf0a7e5a	-0.5409905
13	0x3e880206	0.26564044
14	0xbde99495	-0.11405293
15	0xbe46ef20	-0.19427156
16	0x3e85487c	0.26031864
17	0x3ed789da	0.4209736
18	0x3e35c22e	0.17749855
19	0x3f174c41	0.5910073
20	0xbc8c2b8e	-0.017110612
21	0xbef35e98	-0.47533107
22	0x3f3b3607	0.73129314
23	0x3ec6d0f3	0.3883129
24	0xbf2089ed	-0.6271046
25	0xbebac647	-0.364794
26	0x3ef21c58	0.4728725
27	0x3e70de0a	0.23522201
28	0xbf708854	-0.9395802
29	0xbe7566a5	-0.23964937
30	0xbd63c031	-0.05560321
31	0x3fe25511	1.768221
32	0xbe2f5fab	-0.17126338
33	0x3f5ca08b	0.8618247
34	0x3ce14b9f	0.02750188
35	0x3f53941d	0.8264788
36	0x3dff5203	0.12466814
37	0xbee2af6a	-0.44274455
38	0xbf18c145	-0.59669906
39	0x3f4d24f4	0.8013451
40	0x3e39cf46	0.18145475
41	0xbe6e56a3	-0.23275237
42	0x3ede2b7f	0.4339256
43	0xbec171e7	-0.37782213
44	0x3e8a935c	0.2706555
45	0xbda42ba5	-0.08016137
46	0x3f006e13	0.5016796
47	0xbf456238	-0.77102995
48	0xbecfd079	-0.4058874
49	0x3ebf457e	0.37357706
50	0x3e4aee55	0.19817479
51	0x3e85758d	0.26066247
52	0xbe707072	-0.23480394
53	0x3c6cc6f1	0.014451728
54	0xbf633efb	-0.88767976
55	0xbfdaab8c	-1.7083602
56	0xbf85c225	-1.0449873
57	0xbbb40b4f	-0.005494512
58	0x3f7cccf1	0.98750216
59	0x3f9ae61c	1.2101474
60	0xbeaa7a51	-0.33296445
61	0x3e04cf1f	0.12969635
62	0xbf58df70	-0.8471594
63	0xbeca5a8e	-0.39522213
64	0xbdbadd9f	-0.09124302
65	0x3f344a7c	0.70426154
66	0x3f8aa74d	1.0832306
67	0x3f16e7aa	0.5894724
68	0x3eb30509	0.3496478
69	0xbf25bba1	-0.64739424
70	0x3d9c3549	0.07627351
71	0x3e5b9974	0.21445256
72	0x3f435e18	0.7631545
73	0x3e158816	0.14602694
74	0xbe3f2df9	-0.18669881
75	0x3f5dd48b	0.8665244
76	0x3d93e938	0.07222217
77	0xbdfd0ccc	-0.123559564
78	0x3eea0f24	0.45714676
79	0x3d3b3ccd	0.04571228
80	0xbe8ed8f7	-0.27899906
81	0x3f2de54f	0.6792802
82	0xbf1b06df	-0.6055736
83	0x3f11750e	0.56819236
84	0xbf0fbbb2	-0.56145775
85	0x3efded1c	0.49594963
86	0x3efb256e	0.49051994
87	0xbcdf85d0	-0.027285486
88	0xbdc59eac	-0.09649405
89	0x3f12fbc9	0.57415444
90	0xbe0dc45d	-0.13844438
91	0x3e3002af	0.17188524
92	0xbf7dfc70	-0.99213314
93	0xbf0f587d	-0.559944
94	0x3c8d4499	0.017244624
95	0xbeb41105	-0.35169235
96	0x3f8b1338	1.086524
97	0xbe631da7	-0.2217928
98	0x3e56d3a0	0.20979166
99	0xbf4eb599	-0.80745846
100	0xbed4e880	-0.41583633
101	0xbf406cc3	-0.7516596
102	0x3eb555ef	0.35417125
103	0xbf582284	-0.84427667
104	0x3eab15e2	0.33415133
105	0x3fb70469	1.4298221
106	0xbec2705a	-0.37976342
107	0xbf7087a7	-0.9395699
108	0xbf2e7bce	-0.6815766
109	0x3e22488e	0.1584799
110	0x3ea34c92	0.31894356
111	0xbf25e31f	-0.64799684
112	0x3f10c49b	0.56549996
113	0x3fb294d2	1.3951666
114	0xbd5678af	-0.052361187
115	0xbe70067f	-0.23439978
116	0xbf3eb6da	-0.7449776
117	0x3d22a1a9	0.039704952
118	0xbf0de092	-0.5542079
119	0x3dcec40c	0.10095987
120	0xbf179b4e	-0.5922135
121	0x3f388f88	0.7209401
122	0xbebedac5	-0.37276283
123	0x3dd61f37	0.104551725
124	0xbd5891dd	-0.05287348
125	0xbdbed805	-0.09318546
126	0x3eb01152	0.34388214
127	0xbf200cd0	-0.6251955
128	0xbf6120bf	-0.8794059
129	0x3efdce8b	0.49571642
130	0x3d7ada6a	0.061243452
131	0xbd58ca9e	-0.052927606
132	0xbf200a03	-0.62515277
133	0xbdc45af7	-0.09587663
134	0x3e5e0a35	0.21683581
135	0xbeb9fafd	-0.363243
136	0x3ed952c9	0.42445973
137	0xbeca0311	-0.39455464
138	0x3dcaa50c	0.098947614
139	0x3e583204	0.2111283
140	0xbf66a29c	-0.9009187
141	0x3f49c98a	0.7882315
142	0xbfadbb07	-1.3572701
143	0xbf514bdb	-0.8175637
144	0x3f103e1a	0.5634476
145	0xbea0baf1	-0.31392625
146	0xbe23d470	-0.15999007
147	0xbf98865f	-1.1916007
148	0xbfc6429b	-1.5489076
149	0x3ebb1d33	0.36545715
150	0x3ef6e51c	0.48221672
151	0x3e967839	0.29388598
152	0xbeb85837	-0.36004803
153	0x3f1d2114	0.613786
154	0xbd4da512	-0.05020625
155	0x3f84c960	1.0373955
156	0xbed45214	-0.4146887
157	0x3ead6ff2	0.3387447
158	0x3e19b26a	0.15009466
159	0x3ea56419	0.3230293
160	0xbf034cfb	-0.5128934
161	0xbf2c8a98	-0.6739898
162	0xbc63cb7a	-0.013903493
163	0x3fa3f02f	1.2807673
164	0x3f59bd41	0.85054404
165	0x3f4e7cf7	0.8065943
166	0x3e66c233	0.22535019
167	0x3f636f73	0.88841933
168	0xbe95ac19	-0.29232863
169	0x3f3051ed	0.6887501
170	0xbedda6b0	-0.43291235
171	0xbe9cb01f	-0.3060312
172	0xbe44e114	-0.19226485
173	0x3ee4eb0e	0.44710582
174	0x3e9c4b15	0.30526033
175	0xbedca307	-0.4309313
176	0x3df8959e	0.12137912
177	0xbe89887e	-0.26861948
178	0xbeef9a20	-0.46797276
179	0xbf060a40	-0.5235939
180	0x3d67b302	0.0565672
181	0x3eca3033	0.39489898
182	0xbf247c0c	-0.6425178
183	0x3f828dc0	1.0199509
184	0xbf594c6b	-0.8488223
185	0xbd2222e1	-0.039584044
186	0xbf0cd47f	-0.55011743
187	0x3f0c1bb7	0.5472979
188	0xbdaa522d	-0.08316455
189	0xbef4c83c	-0.47809017
190	0x3f399101	0.72486883
191	0xbf8721e6	-1.055722
192	0x3ecf35a6	0.40470618
193	0x3e1f3c78	0.15550411
194	0x3f036877	0.51331276
195	0xbef93e16	-0.4868018
196	0xbf5c62dc	-0.8608835
197	0xbe755c58	-0.23961008
198	0x3d2e72c1	0.042589907
199	0x3e92f294	0.28700697
200	0x3dec94a0	0.115517855
201	0xbf2b8db6	-0.6701311
202	0x3f32db9a	0.69866335
203	0xbe3e2593	-0.18569021
204	0x3fd7149c	1.6803164
205	0xbcf2805b	-0.02960222
206	0xbe1f15f4	-0.15535718
207	0x3f2f0634	0.6836884
208	0xbe6faa4f	-0.23404811
209	0x3f742b4f	0.95378584
210	0xbf92eef2	-1.147917
211	0x3b14e46e	0.0022719163
212	0xbf7e19ff	-0.99258417
213	0x3e082cc7	0.13298331
214	0x3e0d7fac	0.13818234
215	0x3d4388aa	0.047737755
216	0x3db946e1	0.09046722
217	0xbe256f8e	-0.16155836
218	0xbdfef652	-0.124493256
219	0xbf04a9d8	-0.5182166
220	0x3b39fed2	0.0028380645
221	0xbf68d3bd	-0.90948087
222	0x3d164e59	0.036695812
223	0xbe2b10bd	-0.16705604
224	0xbc5ee323	-0.013603958
225	0x3ebf9e6e	0.3742556
226	0x3e9e8633	0.3096176
227	0xbea4a547	-0.32157347
228	0xbf3cec7d	-0.7379835
229	0x3f9c3b29	1.2205554
230	0x3ee239ab	0.44184622
231	0x3f123d6e	0.57124984
232	0xbf98a3c0	-1.1924973
233	0x3e9dbdcd	0.3080887
234	0x3f7fa00b	0.9985358
235	0xbf35d222	-0.7102376
236	0x3f1d91e3	0.6155073
237	0xbec69fdf	-0.38793847
238	0x3f252af0	0.6451864
239	0xbc8f9c63	-0.017530626
240	0xbf5a67b3	-0.8531448
241	0xbeb47557	-0.35245773
242	0xbd45afc0	-0.04826331
243	0x3e827648	0.25480866
244	0xbf3fce3b	-0.7492406
245	0x3f4f69f8	0.8102107
246	0xbf294be1	-0.6613141
247	0x3fa2a7fd	1.2707516
248	0xbdc8f81a	-0.098129466
249	0x3f3c4bf3	0.7355339
250	0x3f0c5e75	0.5483163
251	0xbf02ddfb	-0.51119965
252	0xbe6d1586	-0.23152742
253	0xbf0c37fc	-0.54772925
254	0xbf3c1c61	-0.734808
255	0x3fa2ce24	1.2719159

network_body._body_endoder.seq_layers.0.bias f4 [128]
0	0x3d8361e0	0.064151525
1	0x3d36365e	0.044485442
2	0xbc0bd976	-0.008535733
3	0x3d96e8a1	0.07368589
4	0x3c802e71	0.015647145
5	0x3d83141e	0.064003214
6	0x3dd08a0f	0.101825826
7	0x3cf221c9	0.029557126
8	0x3c5072ba	0.012722665
9	0x3c8e9bbd	0.017408246
10	0x3dc2ff98	0.09521407
11	0x3dd049bb	0.10170313
12	0x3b24b5f1	0.002513286
13	0x3d8a2a78	0.067463815
14	0xbd8d5fd0	-0.069030404
15	0xbccd3766	-0.02505083
16	0x3d4e89ea	0.050424494
17	0x3be6377a	0.0070256563
18	0x3d112645	0.035436887
19	0x3da307ff	0.079605095
20	0xbd16d96b	-0.03682844
21	0xbcb8e741	-0.022571208
22	0x3de56f17	0.11202829
23	0x3cb2892f	0.02179393
24	0x3db3e24d	0.08783398
25	0x3da5e6cc	0.08100662
26	0x3d18667c	0.03720711
27	0x3d778c6f	0.060436662
28	0x3d497720	0.049185872
29	0x3db85f2a	0.09002526
30	0xbd7b2b5c	-0.061320648
31	0x3d66faa8	0.05639139
32	0x3da76d43	0.08175137
33	0xbccf5a60	-0.025311649
34	0x3d36a68b	0.04459242
35	0x3d15e852	0.03659851
36	0xbc49e8cc	-0.0123235695
37	0x3d7774c1	0.06041408
38	0xbd8cc5b4	-0.068736464
39	0x3b45917f	0.0030146537
40	0x3d27cc1a	0.04096613
41	0x3dbb719d	0.091525294
42	0x3b8d4b53	0.004311958
43	0x3d5e9b72	0.054347463
44	0xbc8345d0	-0.0160245
45	0x3af6165e	0.0018774976
46	0xbd88c4ff	-0.06678199
47	0x3c332e8f	0.010936393
48	0x3d63525c	0.055498466
49	0x3c8d0387	0.017213596
50	0x3d70f307	0.05882552
51	0x3d83a39b	0.0642769
52	0x3c65d5fe	0.0140280705
53	0xbd3b13e2	-0.04567326
54	0x3dbceb1a	0.092245296
55	0x3dbfba0d	0.09361658
56	0x3db37bad	0.08763824
57	0x3d5bd2d5	0.053667862
58	0x3cbeaf7c	0.023277037
59	0xb7dc5832	-2.6267113e-05
60	0x3da3904c	0.07986507
61	0x3d80f572	0.06296815
62	0x3da9372f	0.082624786
63	0x3d777c6b	0.06042139
64	0x3d25ca2c	0.04047601
65	0xbd09b9e3	-0.03362454
66	0x3d706754	0.05869229
67	0x3d88d325	0.066808976
68	0x3df26b05	0.118368186
69	0x3d1cf9ac	0.038324043
70	0x3d4b5cae	0.049648933
71	0x3db5fefd	0.08886526
72	0xbd0cecbc	-0.034405455
73	0xbd05b46b	-0.032642763
74	0xbccab5a5	-0.024744818
75	0x3d709f33	0.058745574
76	0x3d8e29dc	0.06941578
77	0x3ca8bed1	0.0205988
78	0x3d929d1e	0.07158874
79	0x3d4006a8	0.046881348
80	0x3d4cf4f7	0.050038304
81	0x3c966a5e	0.018361267
82	0x3de43043	0.11142018
83	0x3dddd65d	0.10831902
84	0x3a36779c	0.0006960572
85	0x3da5b6ce	0.08091508
86	0x3bbd5f5b	0.0057791895
87	0x3dce7b02	0.10082056
88	0xbd1380b5	-0.036011416
89	0x3dac2a22	0.08406474
90	0x3d8e9229	0.069614716
91	0x3d1091a4	0.035295144
92	0x3d01c61b	0.03168307
93	0x3d88b8b3	0.066758536
94	0x3d9aa9dc	0.07551929
95	0x3d2a131d	0.041522134
96	0x3d8ad95b	0.067797385
97	0x3d2c6973	0.04209275
98	0x3d39230e	0.045199446
99	0xbc398a41	-0.011324466
100	0xbda71fa5	-0.081603326
101	0x3c7e84af	0.015534564
102	0x3d275389	0.04085115
103	0x3d43e02e	0.047821216
104	0x3d4738c6	0.048638128
105	0x3d97e9a0	0.07417607
106	0x3d45b3cb	0.048267167
107	0xbc6f27bc	-0.014596876
108	0x3d8f19a3	0.06987312
109	0x3c5011ce	0.0126995575
110	0x3c43dd36	0.011954596
111	0x3b9f2113	0.0048562377
112	0xbbe919cf	-0.0071136723
113	0x3db2b9be	0.08726834
114	0x3d0fa93e	0.03507351
115	0xbd3f134b	-0.04664926
116	0xbc98f51c	-0.018671565
117	0xbcb125f0	-0.021624535
118	0xbca85faa	-0.020553429
119	0x3d593ec4	0.053038374
120	0xbb882634	-0.004154945
121	0xbd11d318	-0.035601705
122	0x3d85b2c0	0.065282345
123	0x3cd6815c	0.02618473
124	0x3c14ed62	0.0090898
125	0x3ceabea7	0.028655363
126	0x3c6d2607	0.014474398
127	0x3d84b56e	0.064799175

network_body._body_endoder.seq_layers.2.weight f4 [128, 128]
0	0x3db7ed49	0.089808054
1	0x3df14685	0.11781029
2	0xbe1129d2	-0.1417611
3	0x3da88666	0.082287595
4	0x3bd8a069	0.0066109193
5	0x3e87f9e5	0.26557842
6	0xbd4d1f43	-0.05007864
7	0x3d94737b	0.07248589
8	0x3cf549e4	0.02994246
9	0x3e314a4e	0.17313501
10	0x3c209879	0.009801977
11	0x3c98ae61	0.018637838
12	0xbdfb2622	-0.12263133
13	0x3ccc8fd9	0.024970936
14	0xbcf508cf	-0.029911427
15	0xbddef6f5	-0.10886947
16	0x3d8e89df	0.069598906
17	0x3d31835a	0.043338157
18	0xbd273678	-0.04082343
19	0xbddcf16d	-0.10788236
20	0xbdca60b5	-0.09881727
21	0x3cafecb0	0.021475166
22	0xbc82ae03	-0.015952116
23	0xbd910b5a	-0.07082243
24	0x3d39b2b2	0.045336433
25	0x3d5f6348	0.05453804
26	0xbd6f4a9b	-0.05842076
27	0xbcf71e3a	-0.03016578
28	0x3e068395	0.13136132
29	0x3d557bea	0.052120127
30	0xbe143724	-0.1447416
31	0xbdf8b9cf	-0.12144815
32	0x3e05af51	0.13055159
33	0x3bd6d22d	0.0065558166
34	0x3ceaf185	0.028679619
35	0x3e2b92e9	0.1675526
36	0xbd8d590f	-0.06901752
37	0xbc3ad32c	-0.011402886
38	0x3d9bcb15	0.07607094
39	0x3c694a65	0.014238928
40	0xbce52e22	-0.0279761
41	0x3e043f46	0.12914762
42	0xbcbc0792	-0.022952829
43	0x3cf71f12	0.030166183
44	0x3d1ad822	0.037803777
45	0x3b53ee4d	0.0032338083
46	0xbb89b9c2	-0.0042030523
47	0xbda17b17	-0.07884806
48	0xbd33c9d2	-0.043893643
49	0x3d5c8c1e	0.053844564
50	0x3d0b4ba6	0.03400769
51	0xbd8dc3ae	-0.069220886
52	0xbd24e198	-0.040254205
53	0xbd4179e1	-0.047235373
54	0x3d0f897e	0.035043232
55	0xbd52dc02	-0.051479347
56	0x3c27ee9a	0.010249758
57	0xbd547b13	-0.051875185
58	0xbc713080	-0.014721036
59	0x3d0f43db	0.03497682
60	0x3de85bef	0.1134566
61	0x3d6aad7c	0.057294354
62	0xbdddd8bf	-0.10832357
63	0x3d230666	0.039801024
64	0x3c3af12d	0.01141004
65	0xbdcb37f3	-0.09922781
66	0x3e13c640	0.14431095
67	0xbbb594e7	-0.005541432
68	0x3e0a1997	0.13486324
69	0xbddb9d5b	-0.107233725
70	0x3d162584	0.03665687
71	0xbd7bca4a	-0.061472215
72	0x3da0e89d	0.078568675
73	0xbdbc71ae	-0.0920137
74	0xbcc0ff2e	-0.02355918
75	0x3c3074c9	0.010770031
76	0xba909e90	-0.0011033583
77	0xbc1e7bed	-0.009673101
78	0xbd86eb22	-0.06587817
79	0xbd81edc3	-0.063441776
80	0xbe60e536	-0.21962437
81	0x3e6ff267	0.23432313
82	0xbd1c9353	-0.038226437
83	0xbd1a7763	-0.037711512
84	0x3d1de369	0.038546953
85	0x3e1c2032	0.15246657
86	0x3e657709	0.2240869
87	0x3e7ca87a	0.24673644
88	0x3e0012e2	0.12507203
89	0xbd7df3c8	-0.062000066
90	0x3dddc46a	0.10828479
91	0x3e236319	0.15955772
92	0x3e656488	0.22401631
93	0x3dae2027	0.08502226
94	0xbdfe4bc5	-0.12416796
95	0x3dff74e0	0.12473464
96	0xbd56adf0	-0.052411973
97	0x3de40985	0.11134628
98	0x3e07eb51	0.1327336
99	0x3d9c3f54	0.076292664
100	0x3dc83428	0.09775573
101	0xbd275590	-0.040853083
102	0xbdac4975	-0.08412448
103	0xbb05a1a6	-0.002039054
104	0xbdb8dae6	-0.090261266
105	0x3da81385	0.08206848
106	0xbe06067b	-0.1308841
107	0xbdd983c9	-0.10620839
108	0x3d350c7c	0.04420136
109	0xbd87bd41	-0.06627894
110	0x3e32b091	0.17450167
111	0xbe0d2183	-0.13782315
112	0x3d0a18f2	0.033715196
113	0xbd0a2df3	-0.033735227
114	0x3e1d21f3	0.15344982
115	0x3e104f9b	0.14092867
116	0x3dd987ba	0.10621591
117	0x3d04a6ad	0.032385517
118	0xbc9f4c2f	-0.019445507
119	0xbe1bad21	-0.15202762
120	0x3d83392a	0.064073876
121	0x3dc16e22	0.09444834
122	0x3e819507	0.2530901
123	0x3e2c6961	0.16837074
124	0x3d505419	0.05086145
125	0x3d727083	0.05918933
126	0x3d72d844	0.05928828
127	0xbc5a28a0	-0.01331535
128	0xbd358233	-0.04431362
129	0x3db6e7e0	0.089309454
130	0x3c8fff93	0.017577922
131	0xbd05430f	-0.032534655
132	0xbe41dd2c	-0.18932027
133	0xbd923820	-0.07139611
134	0xbd9ba0da	-0.075990394
135	0x3c6e7188	0.014553435
136	0x3dbab172	0.09115876
137	0xbdad0fd8	-0.084502876
138	0xbcc548a0	-0.024082482
139	0x3dc2cbf2	0.09511556
140	0x3ddd4bce	0.10805474
141	0x3c89b3e3	0.01680941
142	0x3e04493a	0.12918559
143	0x3cc33d41	0.02383292
144	0xbd0bec1a	-0.03416071
145	0x3d6a6f03	0.057234775
146	0x3d900b8d	0.07033453
147	0x3d3dcbf5	0.046337087
148	0x3d0939c9	0.033502374
149	0xbdd4212a	-0.10357888
150	0x3dc62ccc	0.09676513
151	0x3d588c2f	0.052868064
152	0x3dda16fa	0.10648914
153	0x3d863908	0.065538466
154	0x3db8be2a	0.09020646
155	0x3dd5f021	0.104461916
156	0xbd9b4ff4	-0.07583609
157	0xbcedbae4	-0.02901978
158	0xbd428a7b	-0.047495347
159	0xbcf5ef5f	-0.030021368
160	0x3d81c257	0.063358955
161	0xbda26da9	-0.07931072
162	0x3d5ed12d	0.054398704
163	0x3e33cbd9	0.1755823
164	0xbde5fd57	-0.11229961
165	0xbc24a46a	-0.010048965
166	0x3d04d986	0.03243401
167	0x3dc78824	0.09742764
168	0xbb30a80f	-0.002695564
169	0x3e11f117	0.14252125
170	0x3de55e74	0.11199656
171	0x3d9fed0a	0.078088835
172	0xbdd994e3	-0.10624101
173	0xbde64b2b	-0.11244806
174	0xbd5bcce7	-0.053662207
175	0xbb2343b1	-0.0024912173
176	0x3e0a102c	0.13482732
177	0x3c8eff06	0.017455589
178	0x3df184e1	0.11792923
179	0x3e80446d	0.25052205
180	0xbcb981e5	-0.022644946
181	0x3d4f5d44	0.050626054
182	0xbd49ce51	-0.049269024
183	0xbce62cac	-0.028097473
184	0xbddf9f01	-0.109189995
185	0xbdee69ec	-0.11641297
186	0x3d596410	0.053073943
187	0x3e2c9c5f	0.16856526
188	0x3d8d7230	0.06906545
189	0x3dd7d490	0.1053859
190	0xbdbbec1e	-0.09175895
191	0xbdfee0b9	-0.12445206
192	0x3cd01233	0.025399303
193	0xbe075cdc	-0.13219017
194	0x3c4bdbe3	0.012442562
195	0xbdc5b913	-0.09654441
196	0x3d2b87ee	0.04187768
197	0xbb8f6fbe	-0.0043773344
198	0x3e939296	0.28822774
199	0xbdd182e9	-0.10230047
200	0x3e072f13	0.13201551
201	0x3e08d506	0.13362512
202	0xbd699872	-0.05703015
203	0x3d2c12e5	0.042010207
204	0x3cc094f5	0.023508528
205	0xbd3a73e7	-0.04552069
206	0x3da27706	0.07932858
207	0xbd893eb2	-0.06701411
208	0x3c60d6b2	0.013723062
209	0x3d9ac48e	0.07557021
210	0x3d6e3068	0.058151633
211	0x3bd2f764	0.0064381827
212	0x3e3d4ca2	0.18486264
213	0x3d13ed6c	0.036115095
214	0x3e460915	0.19339402
215	0x3e771106	0.24127588
216	0xbdce77c0	-0.10081434
217	0xbd9a4a46	-0.07533698
218	0xbd8b694c	-0.06807193
219	0x3d48da69	0.049036417
220	0x3e2b66a5	0.16738375
221	0x3e116e81	0.1420231
222	0xbb123a5e	-0.0022312622
223	0x3cc4ea22	0.024037424
224	0xbd22eb1a	-0.03977499
225	0x3df696b9	0.12040467
226	0x3d66f1dc	0.056383
227	0xbdea2f99	-0.1143486
228	0x3cba82fc	0.022767536
229	0x3d4d3cde	0.050106876
230	0x3ddac272	0.10681619
231	0x3dffbbaa	0.12486966
232	0x3d2c6fd7	0.042098846
233	0x3e0e8942	0.13919547
234	0x3cd651a0	0.026161969
235	0x3d92d15d	0.07168839
236	0xbe2112e3	-0.15729861
237	0xbd9d7f3f	-0.07690286
238	0x3d5965d8	0.05307564
239	0x3d3b316b	0.045701426
240	0x3dd2ee40	0.10299349
241	0xbd8d1606	-0.06888966
242	0x3dd9a7ef	0.10627734
243	0x3dacec25	0.084434785
244	0x3e26bab7	0.16282164
245	0x3e04d78b	0.12972848
246	0x3db7c636	0.089733526
247	0x3bbb6079	0.0057182875
248	0xbd134623	-0.03595556
249	0x3e20a7d1	0.15689017
250	0xbda22d17	-0.079187565
251	0x3d8f70cc	0.07003936
252	0xbd0992cc	-0.033587262
253	0x3dd5c540	0.10438013
254	0x3d354902	0.04425908
255	0xbd058354	-0.032595947

network_body._body_endoder.seq_layers.2.bias f4 [128]
0	0x3bb5b5a6	0.005545336
1	0x3c803370	0.015649527
2	0x3c93a2f6	0.018022042
3	0x3d316f37	0.043318953
4	0x3c981c54	0.018568195
5	0x3d787675	0.060659844
6	0x3cec2249	0.028824942
7	0x3cdb4df6	0.026770573
8	0x3cbd65de	0.023119863
9	0x3b30d093	0.0026979789
10	0x3d862e90	0.0655185
11	0x3cd9fb7e	0.026609179
12	0x3d75502e	0.05989092
13	0x3d9ccdf3	0.07656469
14	0xba6f68b4	-0.00091327284
15	0x3b99c4eb	0.004692664
16	0x3da08b1a	0.078390315
17	0x3d7acd57	0.061230984
18	0x3d0e8609	0.034795795
19	0x3d6fddfe	0.058561318
20	0x3d2e9f69	0.042632494
21	0x3d569f7c	0.05239819
22	0x3d7629f1	0.060098592
23	0x3dc29ec6	0.0950294
24	0x3cd0f6e3	0.02550835
25	0x3d77260e	0.060339026
26	0x3b9f0470	0.004852824
27	0x3b0a8691	0.0021137337
28	0x3d97213b	0.07379385
29	0x3d2495e9	0.040182028
30	0x3cf60f7a	0.030036677
31	0x3c9be7b2	0.01903138
32	0x3d4a046e	0.04932063
33	0x3d90326b	0.070408665
34	0x3d9efdd5	0.07763258
35	0x3d81a22f	0.06329762
36	0xbc196422	-0.009362252
37	0x3d8b3b66	0.06798439
38	0x3bdcdccf	0.0067401896
39	0x3d2051aa	0.03914038
40	0x3d4b74d1	0.04967195
41	0x3d877635	0.06614343
42	0x3affb8d8	0.0019510044
43	0x3db4632a	0.088079765
44	0x3c643bcf	0.013930275
45	0x3d8ca90c	0.06868181
46	0xbc4ca1b6	-0.012489727
47	0x3d5ba75e	0.05362641
48	0x3b18ceef	0.0023316701
49	0x3d2a484f	0.041572865
50	0x3c80655c	0.015673332
51	0x3dd67c86	0.1047297
52	0x3ddac451	0.10681976
53	0x3cff7a81	0.031186344
54	0x3d3f876c	0.046760008
55	0x3d40e51e	0.047093503
56	0x3d4000ce	0.046875767
57	0x3d69df59	0.057097767
58	0x3b46c988	0.0030332524
59	0xbc5ffec6	-0.013671583
60	0x3d49bb0c	0.049250647
61	0x3d0484cb	0.032353204
62	0x3d2150d5	0.039383728
63	0xbb9a2724	-0.004704373
64	0x3d0b849b	0.03406201
65	0x3ce5ead4	0.028066076
66	0x3d332c02	0.04374314
67	0x3bf951eb	0.0076086423
68	0x3dd057e7	0.10173016
69	0x3d4a9e98	0.049467653
70	0x3ce6c0ce	0.028168108
71	0x3d46adf1	0.048505727
72	0x3c6b64fa	0.014367336
73	0x3dcd7181	0.10031415
74	0x3ca42e8e	0.02004173
75	0x3d8197bf	0.063277714
76	0x3d76aaaa	0.06022135
77	0x3d344b2e	0.04401701
78	0x3bbb81fb	0.005722282
79	0x3d37c155	0.04486211
80	0xbc26f224	-0.010189567
81	0x3d5e55c9	0.05428103
82	0x3c2a2f09	0.010387191
83	0x3cd17615	0.025569001
84	0x3d590eef	0.052992757
85	0x3ce8784d	0.028377676
86	0x3cfc3a65	0.030789563
87	0x3c98be69	0.018645482
88	0x3db0392e	0.08604656
89	0x3d82e1bf	0.06390714
90	0x3cda4656	0.026644867
91	0xbc654a58	-0.013994776
92	0x3d466f0b	0.048445743
93	0x3d0fb366	0.035083197
94	0x3c0a34f7	0.008435479
95	0x3d545a1b	0.051843744
96	0x3d620a65	0.055185694
97	0x3cb9ce14	0.022681274
98	0x3cc5bf95	0.024139205
99	0x3cae764f	0.021296648
100	0x3d71c68f	0.05902725
101	0xbb0e8619	-0.002174741
102	0x3d5cb722	0.053885587
103	0x3c4da9e8	0.012552716
104	0x3d94f528	0.07273322
105	0x3d1df49f	0.038563367
106	0x3d5d2bb3	0.053996753
107	0x3d035a4b	0.032068532
108	0x3c9cac90	0.019125253
109	0x3d7ea88e	0.062172465
110	0x3dbafc64	0.09130171
111	0x3c7b6197	0.015343091
112	0x3c4103b6	0.01178067
113	0x3d474e77	0.048658814
114	0xbb70a81e	-0.00367213
115	0x3d378a04	0.044809356
116	0x3d4f55a9	0.0506188
117	0x3d3610fb	0.044449788
118	0x3d4e73f6	0.050403558
119	0x3d5877de	0.05284869
120	0x3d0c0a73	0.034189653
121	0x3d06033e	0.032717936
122	0x3d23a83b	0.03995536
123	0x3d04c18a	0.032411136
124	0x3d4d6bb1	0.05015153
125	0x3cd4f1ee	0.025994267
126	0x3cfbf0e9	0.030754523
127	0xb9b7cc84	-0.00035056856

action_model._discrete_distribution.branches.0.weight f4 [5, 128]
0	0x3c12e5a2	0.008965882
1	0xbc8cf6f2	-0.017207596
2	0xba609eb3	-0.000856857
3	0x3c57ca22	0.013170751
4	0xbba7e213	-0.0051233857
5	0x3c4f99ca	0.0126709435
6	0x3cab672f	0.020923225
7	0xbcd6e4bf	-0.026232122
8	0x3c35ab19	0.011088156
9	0xbc9c0b79	-0.01904844
10	0xbc9978f5	-0.018734435
11	0x3b0fb3bd	0.00219272
12	0x3c1d7e5b	0.009612645
13	0x3c87e719	0.016589688
14	0x3adc3708	0.0016801069
15	0xbc34222a	-0.0109944735
16	0x3c249fe4	0.0100478865
17	0xbc9098e8	-0.017651036
18	0x3b90f60c	0.0044238623
19	0x3a3d63ab	0.00072246295
20	0xbb2cca5b	-0.002636573
21	0x3c30abb7	0.0107831275
22	0xbc880a0f	-0.016606359
23	0xbc509301	-0.012730361
24	0xbcc0faf9	-0.023557173
25	0xbbc85df2	-0.006114715
26	0xbb8e2c20	-0.004338756
27	0x3be9c667	0.007134247
28	0x3b0b259f	0.002123214
29	0xbbe7b4de	-0.0070711216
30	0xbcb19545	-0.021677623
31	0xbb09a639	-0.0021003617
32	0xbd183c70	-0.037167013
33	0xbcaa8d81	-0.020819427
34	0xbcc428d5	-0.023945251
35	0x3ac52575	0.001504107
36	0x39bd2181	0.00036073852
37	0x3bbb3c61	0.005713985
38	0xbc4821ad	-0.01221506
39	0x3ba13368	0.004919458
40	0x3cb1329e	0.021630581
41	0x3b956fa9	0.00456043
42	0xbbb063e0	-0.005383
43	0xba877163	-0.0010333474
44	0xb8d1f803	-0.000100120924
45	0x3ba6fc85	0.0050960206
46	0xbb5d71d4	-0.003378977
47	0xbcb44070	-0.022003382
48	0xbc3dd503	-0.0115864305
49	0xbc8ea4dc	-0.017412595
50	0xbc433a7b	-0.011915798
51	0xbc1403d7	-0.009034119
52	0xbbd09c61	-0.006366298
53	0xbc1abd08	-0.009444483
54	0xbca8d625	-0.020609925
55	0x3be31b7c	0.0069307666
56	0xbcd9741a	-0.02654462
57	0x3c826bce	0.015920546
58	0x38c5d0bb	9.432571e-05
59	0xbb02cf88	-0.0019960124
60	0xbc0f9d4c	-0.00876553
61	0xbbe4b3ab	-0.006979426
62	0xbbb78fee	-0.0056018746
63	0xbc58f1d1	-0.013241247
64	0x3c07d532	0.008290576
65	0xbd469960	-0.048486114
66	0xbc823d22	-0.015898291
67	0x3ccb4d7d	0.024817223
68	0x3c632aa2	0.013865145
69	0xbcc26bda	-0.023733068
70	0xbc530baf	-0.012881204
71	0x3b3cacd0	0.0028789528
72	0xba1da264	-0.0006013273
73	0xbc877792	-0.016536508
74	0xbcc27f49	-0.023742335
75	0xbbe3f70d	-0.006956941
76	0x3adb1a86	0.0016716279
77	0xbc985f5d	-0.01860016
78	0x3c97d471	0.018533917
79	0x3c39b1cc	0.011333894
80	0x3c6c1b82	0.014410855
81	0xbc0e3985	-0.008680706
82	0xbc9a3365	-0.018823335
83	0xbcf3923e	-0.02973282
84	0xbc039b1e	-0.008032588
85	0xbab430fb	-0.0013747507
86	0x3c7d0226	0.015442407
87	0xbc952b87	-0.018209232
88	0xbb1d0d67	-0.0023964287
89	0x3bf8488e	0.0075770086
90	0x3b958ace	0.004563666
91	0xbca38437	-0.019960506
92	0xbc549040	-0.012973845
93	0xbd092db8	-0.033490866
94	0x3c6a4dbf	0.014300763
95	0x3bf2c174	0.0074083153
96	0x3cbe9c89	0.023268001
97	0xbcf7a8b0	-0.030231804
98	0x3c630842	0.013856949
99	0xbbd756e7	-0.006571639
100	0xbc3617b5	-0.011114051
101	0xbc2f380f	-0.010694518
102	0xbc90d5a9	-0.017680006
103	0xbc9767bc	-0.018482082
104	0xbc89bc36	-0.016813379
105	0xba3f8e0a	-0.0007307237
106	0xbc432ccd	-0.011912537
107	0xbc8632b7	-0.016381605
108	0xbccf808d	-0.025329852
109	0xbb206b22	-0.0024477919
110	0xbc3eb0f1	-0.011638866
111	0xbcd1d766	-0.025615405
112	0xbb5ad7f4	-0.0033392878
113	0xbc866a20	-0.016408026
114	0xb9717804	-0.0002302826
115	0x3b90756e	0.00440853
116	0x3b2b165b	0.0026105854
117	0xbd29e4ee	-0.04147809
118	0x3c880e93	0.016608512
119	0x3bb7f66a	0.0056140916
120	0xbc8dbf06	-0.017303001
121	0xbce67563	-0.028132146
122	0xbc50cd24	-0.012744222
123	0x3adfa488	0.0017062584
124	0xba99c810	-0.0011732597
125	0xbba9148d	-0.0051599205
126	0xbc8b9a27	-0.017041279
127	0xbc0d6fe4	-0.008632634
128	0xbd5efb44	-0.054438844
129	0xbcfb42f7	-0.03067158
130	0xbcc317dc	-0.023815088
131	0x3d025c24	0.031826153
132	0x3c992149	0.01869263
133	0x3b3e2ecc	0.0029019592
134	0x3d2d68ca	0.042336263
135	0x3c712720	0.014718801
136	0x3b08198d	0.0020767183
137	0x3c8efe0d	0.017455125
138	0xbd64fba0	-0.05590403
139	0xbd3682da	-0.044558384
140	0xbd8f0415	-0.069832005
141	0xbd3a2f08	-0.04545501
142	0x3c8d38fd	0.017239088
143	0xbd2d8ba4	-0.0423695
144	0xbd1fa954	-0.038979843
145	0xbda252fb	-0.079259835
146	0xbabcbf72	-0.0014400317
147	0xbd9cfafc	-0.07665059
148	0xbd1ec286	-0.03875973
149	0xbb4b1636	-0.003098858
150	0xbdb21028	-0.08694488
151	0xbd8310a8	-0.06399661
152	0x3caad6b1	0.020854326
153	0xbd4ba228	-0.04971519
154	0x3c4d1a4e	0.012518479
155	0xbd3e5b0a	-0.04647354
156	0xbd894f4f	-0.0670458
157	0x3d52721a	0.051378347
158	0x3cd4b2ef	0.025964228
159	0x3c24ee53	0.010066587
160	0x3d9fc5d5	0.07801405
161	0xbd7ba4c4	-0.06143643
162	0xbdae57b4	-0.08512822
163	0xbd6d62d0	-0.057955563
164	0xbcb22e3a	-0.021750558
165	0x3ad592f3	0.0016294405
166	0xbb160639	-0.0022891893
167	0xbd00b2b3	-0.03142042
168	0xbcee3521	-0.029078068
169	0x3b993144	0.0046750624
170	0xbce6174d	-0.028087283
171	0xbd9d9ad4	-0.07695547
172	0xbd560cb3	-0.052258205
173	0xbd0c43a7	-0.034244206
174	0x3c0df670	0.008664712
175	0x3d9f1e26	0.07769422
176	0x3c0d79d7	0.008635006
177	0xbda9afa2	-0.082854524
178	0x3ca75bab	0.020429453
179	0xbdba61fa	-0.09100719
180	0xbd967177	-0.073458605
181	0xbcfb7f6a	-0.030700404
182	0x3d5762b7	0.052584376
183	0xbdc3a188	-0.09552294
184	0x3d7025a2	0.05862964
185	0x3ca7896f	0.020451276
186	0x3ce4e09d	0.027939135
187	0xbbb6ce0a	-0.005578761
188	0xbd3d7db2	-0.04626245
189	0xbd937469	-0.07199938
190	0xbd65ca74	-0.056101277
191	0x3c943165	0.01808996
192	0x3bb6cc51	0.0055785556
193	0x3d2048c4	0.039131895
194	0x3d8402a6	0.06445818
195	0xbd138bb3	-0.0360219
196	0xbdab79ba	-0.08372827
197	0x3dc0d639	0.0941586
198	0xbc3d7cdf	-0.011565416
199	0xbd826ae7	-0.06368046
200	0xbd337202	-0.0438099
201	0xbd815501	-0.06315041
202	0x3a351c04	0.00069087767
203	0x3db572df	0.088598005
204	0xbceb9846	-0.028759133
205	0x3cc7406c	0.02432271
206	0x3cf97262	0.03045005
207	0xbcb0ef2a	-0.021598417
208	0xbcea7327	-0.028619362
209	0xbd8f9870	-0.07011497
210	0x3c1dbd39	0.009627634
211	0xbd7cb784	-0.06169845
212	0x3d664192	0.056214876
213	0x3d85481d	0.06507895
214	0x3d2cffd3	0.04223616
215	0x3cb3eb34	0.02196274
216	0xbd7c5e2b	-0.061613243
217	0x3ca2abe6	0.019857358
218	0xbd677a3d	-0.05651306
219	0xbb863094	-0.0040951464
220	0x3d7f53b9	0.062335704
221	0xbca404e6	-0.020021867
222	0xbcf46c3c	-0.029836766
223	0x3d976e7a	0.073941186
224	0xbd4059d3	-0.046960663
225	0x3ca7bf5c	0.02047699
226	0x3d06bee0	0.032896876
227	0xbd3347f4	-0.04376979
228	0xbd882d36	-0.06649248
229	0x3c5a4022	0.0133209545
230	0xbd747ac8	-0.059687406
231	0xbc9ef290	-0.019402772
232	0x3c96d018	0.018409774
233	0xbd86d560	-0.06583667
234	0x3d561ad4	0.05227168
235	0xbd120076	-0.03564497
236	0x3bbde35b	0.005794925
237	0xbd85f4fc	-0.06540868
238	0xbd714b8a	-0.05890993
239	0x3d1590bf	0.036514994
240	0xbd7242e7	-0.059145834
241	0x3d91b95b	0.07115432
242	0xbb773d5f	-0.003772579
243	0x3d2b63db	0.041843276
244	0x3d125bfd	0.035732258
245	0x3bfe251c	0.0077558886
246	0x3b89fdb4	0.004211152
247	0x3d05a76e	0.032630377
248	0x3d24cea2	0.040236123
249	0x3d71e0d5	0.059052307
250	0xbd0db48a	-0.034596004
251	0x3b2deeaf	0.0026539972
252	0x3c801126	0.015633177
253	0xbcd0ad80	-0.025473356
254	0x3d791861	0.060814265
255	0xbba03d6f	-0.004890136

action_model._discrete_distribution.branches.0.bias f4 [5]
0	0xbc847f26	-0.01617391
1	0xbc239892	-0.009985106
2	0x3bd04118	0.006355416
3	0x3ce86f04	0.028373249
4	0xbc760d40	-0.0150178075

onnx::Div_52 f4 [3]
0	0x411ce128	9.80497
1	0x40fbb331	7.865624
2	0x40f65980	7.6984253
